Model: "EfficientNet"
┏━━━━━━━━━━━━━━━━━━━━━━━━━━━━━━━┳━━━━━━━━━━━━━━━━━━━━━━━━━━━┳━━━━━━━━━━━━━━━━━┳━━━━━━━━━━━━━━━━━━━━━━━━━━━━┓
┃ Layer (type)                  ┃ Output Shape              ┃         Param # ┃ Connected to               ┃
┡━━━━━━━━━━━━━━━━━━━━━━━━━━━━━━━╇━━━━━━━━━━━━━━━━━━━━━━━━━━━╇━━━━━━━━━━━━━━━━━╇━━━━━━━━━━━━━━━━━━━━━━━━━━━━┩
│ input_layer (InputLayer)      │ (None, 465, 121, 3)       │               0 │ -                          │
├───────────────────────────────┼───────────────────────────┼─────────────────┼────────────────────────────┤
│ rescaling (Rescaling)         │ (None, 465, 121, 3)       │               0 │ input_layer[0][0]          │
├───────────────────────────────┼───────────────────────────┼─────────────────┼────────────────────────────┤
│ stem_conv (Conv2D)            │ (None, 233, 61, 24)       │             648 │ rescaling[0][0]            │
├───────────────────────────────┼───────────────────────────┼─────────────────┼────────────────────────────┤
│ stem_bn (BatchNormalization)  │ (None, 233, 61, 24)       │              96 │ stem_conv[0][0]            │
├───────────────────────────────┼───────────────────────────┼─────────────────┼────────────────────────────┤
│ stem_activation (Activation)  │ (None, 233, 61, 24)       │               0 │ stem_bn[0][0]              │
├───────────────────────────────┼───────────────────────────┼─────────────────┼────────────────────────────┤
│ block1a_project_conv (Conv2D) │ (None, 233, 61, 24)       │           5,184 │ stem_activation[0][0]      │
├───────────────────────────────┼───────────────────────────┼─────────────────┼────────────────────────────┤
│ block1a_project_bn            │ (None, 233, 61, 24)       │              96 │ block1a_project_conv[0][0] │
│ (BatchNormalization)          │                           │                 │                            │
├───────────────────────────────┼───────────────────────────┼─────────────────┼────────────────────────────┤
│ block1a_project_activation    │ (None, 233, 61, 24)       │               0 │ block1a_project_bn[0][0]   │
│ (Activation)                  │                           │                 │                            │
├───────────────────────────────┼───────────────────────────┼─────────────────┼────────────────────────────┤
│ block1a_add (Add)             │ (None, 233, 61, 24)       │               0 │ block1a_project_activatio… │
│                               │                           │                 │ stem_activation[0][0]      │
├───────────────────────────────┼───────────────────────────┼─────────────────┼────────────────────────────┤
│ block1b_project_conv (Conv2D) │ (None, 233, 61, 24)       │           5,184 │ block1a_add[0][0]          │
├───────────────────────────────┼───────────────────────────┼─────────────────┼────────────────────────────┤
│ block1b_project_bn            │ (None, 233, 61, 24)       │              96 │ block1b_project_conv[0][0] │
│ (BatchNormalization)          │                           │                 │                            │
├───────────────────────────────┼───────────────────────────┼─────────────────┼────────────────────────────┤
│ block1b_project_activation    │ (None, 233, 61, 24)       │               0 │ block1b_project_bn[0][0]   │
│ (Activation)                  │                           │                 │                            │
├───────────────────────────────┼───────────────────────────┼─────────────────┼────────────────────────────┤
│ block1b_drop (Dropout)        │ (None, 233, 61, 24)       │               0 │ block1b_project_activatio… │
├───────────────────────────────┼───────────────────────────┼─────────────────┼────────────────────────────┤
│ block1b_add (Add)             │ (None, 233, 61, 24)       │               0 │ block1b_drop[0][0],        │
│                               │                           │                 │ block1a_add[0][0]          │
├───────────────────────────────┼───────────────────────────┼─────────────────┼────────────────────────────┤
│ block2a_expand_conv (Conv2D)  │ (None, 117, 31, 96)       │          20,736 │ block1b_add[0][0]          │
├───────────────────────────────┼───────────────────────────┼─────────────────┼────────────────────────────┤
│ block2a_expand_bn             │ (None, 117, 31, 96)       │             384 │ block2a_expand_conv[0][0]  │
│ (BatchNormalization)          │                           │                 │                            │
├───────────────────────────────┼───────────────────────────┼─────────────────┼────────────────────────────┤
│ block2a_expand_activation     │ (None, 117, 31, 96)       │               0 │ block2a_expand_bn[0][0]    │
│ (Activation)                  │                           │                 │                            │
├───────────────────────────────┼───────────────────────────┼─────────────────┼────────────────────────────┤
│ block2a_project_conv (Conv2D) │ (None, 117, 31, 48)       │           4,608 │ block2a_expand_activation… │
├───────────────────────────────┼───────────────────────────┼─────────────────┼────────────────────────────┤
│ block2a_project_bn            │ (None, 117, 31, 48)       │             192 │ block2a_project_conv[0][0] │
│ (BatchNormalization)          │                           │                 │                            │
├───────────────────────────────┼───────────────────────────┼─────────────────┼────────────────────────────┤
│ block2b_expand_conv (Conv2D)  │ (None, 117, 31, 192)      │          82,944 │ block2a_project_bn[0][0]   │
├───────────────────────────────┼───────────────────────────┼─────────────────┼────────────────────────────┤
│ block2b_expand_bn             │ (None, 117, 31, 192)      │             768 │ block2b_expand_conv[0][0]  │
│ (BatchNormalization)          │                           │                 │                            │
├───────────────────────────────┼───────────────────────────┼─────────────────┼────────────────────────────┤
│ block2b_expand_activation     │ (None, 117, 31, 192)      │               0 │ block2b_expand_bn[0][0]    │
│ (Activation)                  │                           │                 │                            │
├───────────────────────────────┼───────────────────────────┼─────────────────┼────────────────────────────┤
│ block2b_project_conv (Conv2D) │ (None, 117, 31, 48)       │           9,216 │ block2b_expand_activation… │
├───────────────────────────────┼───────────────────────────┼─────────────────┼────────────────────────────┤
│ block2b_project_bn            │ (None, 117, 31, 48)       │             192 │ block2b_project_conv[0][0] │
│ (BatchNormalization)          │                           │                 │                            │
├───────────────────────────────┼───────────────────────────┼─────────────────┼────────────────────────────┤
│ block2b_drop (Dropout)        │ (None, 117, 31, 48)       │               0 │ block2b_project_bn[0][0]   │
├───────────────────────────────┼───────────────────────────┼─────────────────┼────────────────────────────┤
│ block2b_add (Add)             │ (None, 117, 31, 48)       │               0 │ block2b_drop[0][0],        │
│                               │                           │                 │ block2a_project_bn[0][0]   │
├───────────────────────────────┼───────────────────────────┼─────────────────┼────────────────────────────┤
│ block2c_expand_conv (Conv2D)  │ (None, 117, 31, 192)      │          82,944 │ block2b_add[0][0]          │
├───────────────────────────────┼───────────────────────────┼─────────────────┼────────────────────────────┤
│ block2c_expand_bn             │ (None, 117, 31, 192)      │             768 │ block2c_expand_conv[0][0]  │
│ (BatchNormalization)          │                           │                 │                            │
├───────────────────────────────┼───────────────────────────┼─────────────────┼────────────────────────────┤
│ block2c_expand_activation     │ (None, 117, 31, 192)      │               0 │ block2c_expand_bn[0][0]    │
│ (Activation)                  │                           │                 │                            │
├───────────────────────────────┼───────────────────────────┼─────────────────┼────────────────────────────┤
│ block2c_project_conv (Conv2D) │ (None, 117, 31, 48)       │           9,216 │ block2c_expand_activation… │
├───────────────────────────────┼───────────────────────────┼─────────────────┼────────────────────────────┤
│ block2c_project_bn            │ (None, 117, 31, 48)       │             192 │ block2c_project_conv[0][0] │
│ (BatchNormalization)          │                           │                 │                            │
├───────────────────────────────┼───────────────────────────┼─────────────────┼────────────────────────────┤
│ block2c_drop (Dropout)        │ (None, 117, 31, 48)       │               0 │ block2c_project_bn[0][0]   │
├───────────────────────────────┼───────────────────────────┼─────────────────┼────────────────────────────┤
│ block2c_add (Add)             │ (None, 117, 31, 48)       │               0 │ block2c_drop[0][0],        │
│                               │                           │                 │ block2b_add[0][0]          │
├───────────────────────────────┼───────────────────────────┼─────────────────┼────────────────────────────┤
│ block2d_expand_conv (Conv2D)  │ (None, 117, 31, 192)      │          82,944 │ block2c_add[0][0]          │
├───────────────────────────────┼───────────────────────────┼─────────────────┼────────────────────────────┤
│ block2d_expand_bn             │ (None, 117, 31, 192)      │             768 │ block2d_expand_conv[0][0]  │
│ (BatchNormalization)          │                           │                 │                            │
├───────────────────────────────┼───────────────────────────┼─────────────────┼────────────────────────────┤
│ block2d_expand_activation     │ (None, 117, 31, 192)      │               0 │ block2d_expand_bn[0][0]    │
│ (Activation)                  │                           │                 │                            │
├───────────────────────────────┼───────────────────────────┼─────────────────┼────────────────────────────┤
│ block2d_project_conv (Conv2D) │ (None, 117, 31, 48)       │           9,216 │ block2d_expand_activation… │
├───────────────────────────────┼───────────────────────────┼─────────────────┼────────────────────────────┤
│ block2d_project_bn            │ (None, 117, 31, 48)       │             192 │ block2d_project_conv[0][0] │
│ (BatchNormalization)          │                           │                 │                            │
├───────────────────────────────┼───────────────────────────┼─────────────────┼────────────────────────────┤
│ block2d_drop (Dropout)        │ (None, 117, 31, 48)       │               0 │ block2d_project_bn[0][0]   │
├───────────────────────────────┼───────────────────────────┼─────────────────┼────────────────────────────┤
│ block2d_add (Add)             │ (None, 117, 31, 48)       │               0 │ block2d_drop[0][0],        │
│                               │                           │                 │ block2c_add[0][0]          │
├───────────────────────────────┼───────────────────────────┼─────────────────┼────────────────────────────┤
│ block3a_expand_conv (Conv2D)  │ (None, 59, 16, 192)       │          82,944 │ block2d_add[0][0]          │
├───────────────────────────────┼───────────────────────────┼─────────────────┼────────────────────────────┤
│ block3a_expand_bn             │ (None, 59, 16, 192)       │             768 │ block3a_expand_conv[0][0]  │
│ (BatchNormalization)          │                           │                 │                            │
├───────────────────────────────┼───────────────────────────┼─────────────────┼────────────────────────────┤
│ block3a_expand_activation     │ (None, 59, 16, 192)       │               0 │ block3a_expand_bn[0][0]    │
│ (Activation)                  │                           │                 │                            │
├───────────────────────────────┼───────────────────────────┼─────────────────┼────────────────────────────┤
│ block3a_project_conv (Conv2D) │ (None, 59, 16, 64)        │          12,288 │ block3a_expand_activation… │
├───────────────────────────────┼───────────────────────────┼─────────────────┼────────────────────────────┤
│ block3a_project_bn            │ (None, 59, 16, 64)        │             256 │ block3a_project_conv[0][0] │
│ (BatchNormalization)          │                           │                 │                            │
├───────────────────────────────┼───────────────────────────┼─────────────────┼────────────────────────────┤
│ block3b_expand_conv (Conv2D)  │ (None, 59, 16, 256)       │         147,456 │ block3a_project_bn[0][0]   │
├───────────────────────────────┼───────────────────────────┼─────────────────┼────────────────────────────┤
│ block3b_expand_bn             │ (None, 59, 16, 256)       │           1,024 │ block3b_expand_conv[0][0]  │
│ (BatchNormalization)          │                           │                 │                            │
├───────────────────────────────┼───────────────────────────┼─────────────────┼────────────────────────────┤
│ block3b_expand_activation     │ (None, 59, 16, 256)       │               0 │ block3b_expand_bn[0][0]    │
│ (Activation)                  │                           │                 │                            │
├───────────────────────────────┼───────────────────────────┼─────────────────┼────────────────────────────┤
│ block3b_project_conv (Conv2D) │ (None, 59, 16, 64)        │          16,384 │ block3b_expand_activation… │
├───────────────────────────────┼───────────────────────────┼─────────────────┼────────────────────────────┤
│ block3b_project_bn            │ (None, 59, 16, 64)        │             256 │ block3b_project_conv[0][0] │
│ (BatchNormalization)          │                           │                 │                            │
├───────────────────────────────┼───────────────────────────┼─────────────────┼────────────────────────────┤
│ block3b_drop (Dropout)        │ (None, 59, 16, 64)        │               0 │ block3b_project_bn[0][0]   │
├───────────────────────────────┼───────────────────────────┼─────────────────┼────────────────────────────┤
│ block3b_add (Add)             │ (None, 59, 16, 64)        │               0 │ block3b_drop[0][0],        │
│                               │                           │                 │ block3a_project_bn[0][0]   │
├───────────────────────────────┼───────────────────────────┼─────────────────┼────────────────────────────┤
│ block3c_expand_conv (Conv2D)  │ (None, 59, 16, 256)       │         147,456 │ block3b_add[0][0]          │
├───────────────────────────────┼───────────────────────────┼─────────────────┼────────────────────────────┤
│ block3c_expand_bn             │ (None, 59, 16, 256)       │           1,024 │ block3c_expand_conv[0][0]  │
│ (BatchNormalization)          │                           │                 │                            │
├───────────────────────────────┼───────────────────────────┼─────────────────┼────────────────────────────┤
│ block3c_expand_activation     │ (None, 59, 16, 256)       │               0 │ block3c_expand_bn[0][0]    │
│ (Activation)                  │                           │                 │                            │
├───────────────────────────────┼───────────────────────────┼─────────────────┼────────────────────────────┤
│ block3c_project_conv (Conv2D) │ (None, 59, 16, 64)        │          16,384 │ block3c_expand_activation… │
├───────────────────────────────┼───────────────────────────┼─────────────────┼────────────────────────────┤
│ block3c_project_bn            │ (None, 59, 16, 64)        │             256 │ block3c_project_conv[0][0] │
│ (BatchNormalization)          │                           │                 │                            │
├───────────────────────────────┼───────────────────────────┼─────────────────┼────────────────────────────┤
│ block3c_drop (Dropout)        │ (None, 59, 16, 64)        │               0 │ block3c_project_bn[0][0]   │
├───────────────────────────────┼───────────────────────────┼─────────────────┼────────────────────────────┤
│ block3c_add (Add)             │ (None, 59, 16, 64)        │               0 │ block3c_drop[0][0],        │
│                               │                           │                 │ block3b_add[0][0]          │
├───────────────────────────────┼───────────────────────────┼─────────────────┼────────────────────────────┤
│ block3d_expand_conv (Conv2D)  │ (None, 59, 16, 256)       │         147,456 │ block3c_add[0][0]          │
├───────────────────────────────┼───────────────────────────┼─────────────────┼────────────────────────────┤
│ block3d_expand_bn             │ (None, 59, 16, 256)       │           1,024 │ block3d_expand_conv[0][0]  │
│ (BatchNormalization)          │                           │                 │                            │
├───────────────────────────────┼───────────────────────────┼─────────────────┼────────────────────────────┤
│ block3d_expand_activation     │ (None, 59, 16, 256)       │               0 │ block3d_expand_bn[0][0]    │
│ (Activation)                  │                           │                 │                            │
├───────────────────────────────┼───────────────────────────┼─────────────────┼────────────────────────────┤
│ block3d_project_conv (Conv2D) │ (None, 59, 16, 64)        │          16,384 │ block3d_expand_activation… │
├───────────────────────────────┼───────────────────────────┼─────────────────┼────────────────────────────┤
│ block3d_project_bn            │ (None, 59, 16, 64)        │             256 │ block3d_project_conv[0][0] │
│ (BatchNormalization)          │                           │                 │                            │
├───────────────────────────────┼───────────────────────────┼─────────────────┼────────────────────────────┤
│ block3d_drop (Dropout)        │ (None, 59, 16, 64)        │               0 │ block3d_project_bn[0][0]   │
├───────────────────────────────┼───────────────────────────┼─────────────────┼────────────────────────────┤
│ block3d_add (Add)             │ (None, 59, 16, 64)        │               0 │ block3d_drop[0][0],        │
│                               │                           │                 │ block3c_add[0][0]          │
├───────────────────────────────┼───────────────────────────┼─────────────────┼────────────────────────────┤
│ block4a_expand_conv (Conv2D)  │ (None, 59, 16, 256)       │          16,384 │ block3d_add[0][0]          │
├───────────────────────────────┼───────────────────────────┼─────────────────┼────────────────────────────┤
│ block4a_expand_bn             │ (None, 59, 16, 256)       │           1,024 │ block4a_expand_conv[0][0]  │
│ (BatchNormalization)          │                           │                 │                            │
├───────────────────────────────┼───────────────────────────┼─────────────────┼────────────────────────────┤
│ block4a_expand_activation     │ (None, 59, 16, 256)       │               0 │ block4a_expand_bn[0][0]    │
│ (Activation)                  │                           │                 │                            │
├───────────────────────────────┼───────────────────────────┼─────────────────┼────────────────────────────┤
│ block4a_dwconv2               │ (None, 30, 8, 256)        │           2,304 │ block4a_expand_activation… │
│ (DepthwiseConv2D)             │                           │                 │                            │
├───────────────────────────────┼───────────────────────────┼─────────────────┼────────────────────────────┤
│ block4a_bn                    │ (None, 30, 8, 256)        │           1,024 │ block4a_dwconv2[0][0]      │
│ (BatchNormalization)          │                           │                 │                            │
├───────────────────────────────┼───────────────────────────┼─────────────────┼────────────────────────────┤
│ block4a_activation            │ (None, 30, 8, 256)        │               0 │ block4a_bn[0][0]           │
│ (Activation)                  │                           │                 │                            │
├───────────────────────────────┼───────────────────────────┼─────────────────┼────────────────────────────┤
│ block4a_se_squeeze            │ (None, 256)               │               0 │ block4a_activation[0][0]   │
│ (GlobalAveragePooling2D)      │                           │                 │                            │
├───────────────────────────────┼───────────────────────────┼─────────────────┼────────────────────────────┤
│ block4a_se_reshape (Reshape)  │ (None, 1, 1, 256)         │               0 │ block4a_se_squeeze[0][0]   │
├───────────────────────────────┼───────────────────────────┼─────────────────┼────────────────────────────┤
│ block4a_se_reduce (Conv2D)    │ (None, 1, 1, 16)          │           4,112 │ block4a_se_reshape[0][0]   │
├───────────────────────────────┼───────────────────────────┼─────────────────┼────────────────────────────┤
│ block4a_se_expand (Conv2D)    │ (None, 1, 1, 256)         │           4,352 │ block4a_se_reduce[0][0]    │
├───────────────────────────────┼───────────────────────────┼─────────────────┼────────────────────────────┤
│ block4a_se_excite (Multiply)  │ (None, 30, 8, 256)        │               0 │ block4a_activation[0][0],  │
│                               │                           │                 │ block4a_se_expand[0][0]    │
├───────────────────────────────┼───────────────────────────┼─────────────────┼────────────────────────────┤
│ block4a_project_conv (Conv2D) │ (None, 30, 8, 128)        │          32,768 │ block4a_se_excite[0][0]    │
├───────────────────────────────┼───────────────────────────┼─────────────────┼────────────────────────────┤
│ block4a_project_bn            │ (None, 30, 8, 128)        │             512 │ block4a_project_conv[0][0] │
│ (BatchNormalization)          │                           │                 │                            │
├───────────────────────────────┼───────────────────────────┼─────────────────┼────────────────────────────┤
│ block4b_expand_conv (Conv2D)  │ (None, 30, 8, 512)        │          65,536 │ block4a_project_bn[0][0]   │
├───────────────────────────────┼───────────────────────────┼─────────────────┼────────────────────────────┤
│ block4b_expand_bn             │ (None, 30, 8, 512)        │           2,048 │ block4b_expand_conv[0][0]  │
│ (BatchNormalization)          │                           │                 │                            │
├───────────────────────────────┼───────────────────────────┼─────────────────┼────────────────────────────┤
│ block4b_expand_activation     │ (None, 30, 8, 512)        │               0 │ block4b_expand_bn[0][0]    │
│ (Activation)                  │                           │                 │                            │
├───────────────────────────────┼───────────────────────────┼─────────────────┼────────────────────────────┤
│ block4b_dwconv2               │ (None, 30, 8, 512)        │           4,608 │ block4b_expand_activation… │
│ (DepthwiseConv2D)             │                           │                 │                            │
├───────────────────────────────┼───────────────────────────┼─────────────────┼────────────────────────────┤
│ block4b_bn                    │ (None, 30, 8, 512)        │           2,048 │ block4b_dwconv2[0][0]      │
│ (BatchNormalization)          │                           │                 │                            │
├───────────────────────────────┼───────────────────────────┼─────────────────┼────────────────────────────┤
│ block4b_activation            │ (None, 30, 8, 512)        │               0 │ block4b_bn[0][0]           │
│ (Activation)                  │                           │                 │                            │
├───────────────────────────────┼───────────────────────────┼─────────────────┼────────────────────────────┤
│ block4b_se_squeeze            │ (None, 512)               │               0 │ block4b_activation[0][0]   │
│ (GlobalAveragePooling2D)      │                           │                 │                            │
├───────────────────────────────┼───────────────────────────┼─────────────────┼────────────────────────────┤
│ block4b_se_reshape (Reshape)  │ (None, 1, 1, 512)         │               0 │ block4b_se_squeeze[0][0]   │
├───────────────────────────────┼───────────────────────────┼─────────────────┼────────────────────────────┤
│ block4b_se_reduce (Conv2D)    │ (None, 1, 1, 32)          │          16,416 │ block4b_se_reshape[0][0]   │
├───────────────────────────────┼───────────────────────────┼─────────────────┼────────────────────────────┤
│ block4b_se_expand (Conv2D)    │ (None, 1, 1, 512)         │          16,896 │ block4b_se_reduce[0][0]    │
├───────────────────────────────┼───────────────────────────┼─────────────────┼────────────────────────────┤
│ block4b_se_excite (Multiply)  │ (None, 30, 8, 512)        │               0 │ block4b_activation[0][0],  │
│                               │                           │                 │ block4b_se_expand[0][0]    │
├───────────────────────────────┼───────────────────────────┼─────────────────┼────────────────────────────┤
│ block4b_project_conv (Conv2D) │ (None, 30, 8, 128)        │          65,536 │ block4b_se_excite[0][0]    │
├───────────────────────────────┼───────────────────────────┼─────────────────┼────────────────────────────┤
│ block4b_project_bn            │ (None, 30, 8, 128)        │             512 │ block4b_project_conv[0][0] │
│ (BatchNormalization)          │                           │                 │                            │
├───────────────────────────────┼───────────────────────────┼─────────────────┼────────────────────────────┤
│ block4b_drop (Dropout)        │ (None, 30, 8, 128)        │               0 │ block4b_project_bn[0][0]   │
├───────────────────────────────┼───────────────────────────┼─────────────────┼────────────────────────────┤
│ block4b_add (Add)             │ (None, 30, 8, 128)        │               0 │ block4b_drop[0][0],        │
│                               │                           │                 │ block4a_project_bn[0][0]   │
├───────────────────────────────┼───────────────────────────┼─────────────────┼────────────────────────────┤
│ block4c_expand_conv (Conv2D)  │ (None, 30, 8, 512)        │          65,536 │ block4b_add[0][0]          │
├───────────────────────────────┼───────────────────────────┼─────────────────┼────────────────────────────┤
│ block4c_expand_bn             │ (None, 30, 8, 512)        │           2,048 │ block4c_expand_conv[0][0]  │
│ (BatchNormalization)          │                           │                 │                            │
├───────────────────────────────┼───────────────────────────┼─────────────────┼────────────────────────────┤
│ block4c_expand_activation     │ (None, 30, 8, 512)        │               0 │ block4c_expand_bn[0][0]    │
│ (Activation)                  │                           │                 │                            │
├───────────────────────────────┼───────────────────────────┼─────────────────┼────────────────────────────┤
│ block4c_dwconv2               │ (None, 30, 8, 512)        │           4,608 │ block4c_expand_activation… │
│ (DepthwiseConv2D)             │                           │                 │                            │
├───────────────────────────────┼───────────────────────────┼─────────────────┼────────────────────────────┤
│ block4c_bn                    │ (None, 30, 8, 512)        │           2,048 │ block4c_dwconv2[0][0]      │
│ (BatchNormalization)          │                           │                 │                            │
├───────────────────────────────┼───────────────────────────┼─────────────────┼────────────────────────────┤
│ block4c_activation            │ (None, 30, 8, 512)        │               0 │ block4c_bn[0][0]           │
│ (Activation)                  │                           │                 │                            │
├───────────────────────────────┼───────────────────────────┼─────────────────┼────────────────────────────┤
│ block4c_se_squeeze            │ (None, 512)               │               0 │ block4c_activation[0][0]   │
│ (GlobalAveragePooling2D)      │                           │                 │                            │
├───────────────────────────────┼───────────────────────────┼─────────────────┼────────────────────────────┤
│ block4c_se_reshape (Reshape)  │ (None, 1, 1, 512)         │               0 │ block4c_se_squeeze[0][0]   │
├───────────────────────────────┼───────────────────────────┼─────────────────┼────────────────────────────┤
│ block4c_se_reduce (Conv2D)    │ (None, 1, 1, 32)          │          16,416 │ block4c_se_reshape[0][0]   │
├───────────────────────────────┼───────────────────────────┼─────────────────┼────────────────────────────┤
│ block4c_se_expand (Conv2D)    │ (None, 1, 1, 512)         │          16,896 │ block4c_se_reduce[0][0]    │
├───────────────────────────────┼───────────────────────────┼─────────────────┼────────────────────────────┤
│ block4c_se_excite (Multiply)  │ (None, 30, 8, 512)        │               0 │ block4c_activation[0][0],  │
│                               │                           │                 │ block4c_se_expand[0][0]    │
├───────────────────────────────┼───────────────────────────┼─────────────────┼────────────────────────────┤
│ block4c_project_conv (Conv2D) │ (None, 30, 8, 128)        │          65,536 │ block4c_se_excite[0][0]    │
├───────────────────────────────┼───────────────────────────┼─────────────────┼────────────────────────────┤
│ block4c_project_bn            │ (None, 30, 8, 128)        │             512 │ block4c_project_conv[0][0] │
│ (BatchNormalization)          │                           │                 │                            │
├───────────────────────────────┼───────────────────────────┼─────────────────┼────────────────────────────┤
│ block4c_drop (Dropout)        │ (None, 30, 8, 128)        │               0 │ block4c_project_bn[0][0]   │
├───────────────────────────────┼───────────────────────────┼─────────────────┼────────────────────────────┤
│ block4c_add (Add)             │ (None, 30, 8, 128)        │               0 │ block4c_drop[0][0],        │
│                               │                           │                 │ block4b_add[0][0]          │
├───────────────────────────────┼───────────────────────────┼─────────────────┼────────────────────────────┤
│ block4d_expand_conv (Conv2D)  │ (None, 30, 8, 512)        │          65,536 │ block4c_add[0][0]          │
├───────────────────────────────┼───────────────────────────┼─────────────────┼────────────────────────────┤
│ block4d_expand_bn             │ (None, 30, 8, 512)        │           2,048 │ block4d_expand_conv[0][0]  │
│ (BatchNormalization)          │                           │                 │                            │
├───────────────────────────────┼───────────────────────────┼─────────────────┼────────────────────────────┤
│ block4d_expand_activation     │ (None, 30, 8, 512)        │               0 │ block4d_expand_bn[0][0]    │
│ (Activation)                  │                           │                 │                            │
├───────────────────────────────┼───────────────────────────┼─────────────────┼────────────────────────────┤
│ block4d_dwconv2               │ (None, 30, 8, 512)        │           4,608 │ block4d_expand_activation… │
│ (DepthwiseConv2D)             │                           │                 │                            │
├───────────────────────────────┼───────────────────────────┼─────────────────┼────────────────────────────┤
│ block4d_bn                    │ (None, 30, 8, 512)        │           2,048 │ block4d_dwconv2[0][0]      │
│ (BatchNormalization)          │                           │                 │                            │
├───────────────────────────────┼───────────────────────────┼─────────────────┼────────────────────────────┤
│ block4d_activation            │ (None, 30, 8, 512)        │               0 │ block4d_bn[0][0]           │
│ (Activation)                  │                           │                 │                            │
├───────────────────────────────┼───────────────────────────┼─────────────────┼────────────────────────────┤
│ block4d_se_squeeze            │ (None, 512)               │               0 │ block4d_activation[0][0]   │
│ (GlobalAveragePooling2D)      │                           │                 │                            │
├───────────────────────────────┼───────────────────────────┼─────────────────┼────────────────────────────┤
│ block4d_se_reshape (Reshape)  │ (None, 1, 1, 512)         │               0 │ block4d_se_squeeze[0][0]   │
├───────────────────────────────┼───────────────────────────┼─────────────────┼────────────────────────────┤
│ block4d_se_reduce (Conv2D)    │ (None, 1, 1, 32)          │          16,416 │ block4d_se_reshape[0][0]   │
├───────────────────────────────┼───────────────────────────┼─────────────────┼────────────────────────────┤
│ block4d_se_expand (Conv2D)    │ (None, 1, 1, 512)         │          16,896 │ block4d_se_reduce[0][0]    │
├───────────────────────────────┼───────────────────────────┼─────────────────┼────────────────────────────┤
│ block4d_se_excite (Multiply)  │ (None, 30, 8, 512)        │               0 │ block4d_activation[0][0],  │
│                               │                           │                 │ block4d_se_expand[0][0]    │
├───────────────────────────────┼───────────────────────────┼─────────────────┼────────────────────────────┤
│ block4d_project_conv (Conv2D) │ (None, 30, 8, 128)        │          65,536 │ block4d_se_excite[0][0]    │
├───────────────────────────────┼───────────────────────────┼─────────────────┼────────────────────────────┤
│ block4d_project_bn            │ (None, 30, 8, 128)        │             512 │ block4d_project_conv[0][0] │
│ (BatchNormalization)          │                           │                 │                            │
├───────────────────────────────┼───────────────────────────┼─────────────────┼────────────────────────────┤
│ block4d_drop (Dropout)        │ (None, 30, 8, 128)        │               0 │ block4d_project_bn[0][0]   │
├───────────────────────────────┼───────────────────────────┼─────────────────┼────────────────────────────┤
│ block4d_add (Add)             │ (None, 30, 8, 128)        │               0 │ block4d_drop[0][0],        │
│                               │                           │                 │ block4c_add[0][0]          │
├───────────────────────────────┼───────────────────────────┼─────────────────┼────────────────────────────┤
│ block4e_expand_conv (Conv2D)  │ (None, 30, 8, 512)        │          65,536 │ block4d_add[0][0]          │
├───────────────────────────────┼───────────────────────────┼─────────────────┼────────────────────────────┤
│ block4e_expand_bn             │ (None, 30, 8, 512)        │           2,048 │ block4e_expand_conv[0][0]  │
│ (BatchNormalization)          │                           │                 │                            │
├───────────────────────────────┼───────────────────────────┼─────────────────┼────────────────────────────┤
│ block4e_expand_activation     │ (None, 30, 8, 512)        │               0 │ block4e_expand_bn[0][0]    │
│ (Activation)                  │                           │                 │                            │
├───────────────────────────────┼───────────────────────────┼─────────────────┼────────────────────────────┤
│ block4e_dwconv2               │ (None, 30, 8, 512)        │           4,608 │ block4e_expand_activation… │
│ (DepthwiseConv2D)             │                           │                 │                            │
├───────────────────────────────┼───────────────────────────┼─────────────────┼────────────────────────────┤
│ block4e_bn                    │ (None, 30, 8, 512)        │           2,048 │ block4e_dwconv2[0][0]      │
│ (BatchNormalization)          │                           │                 │                            │
├───────────────────────────────┼───────────────────────────┼─────────────────┼────────────────────────────┤
│ block4e_activation            │ (None, 30, 8, 512)        │               0 │ block4e_bn[0][0]           │
│ (Activation)                  │                           │                 │                            │
├───────────────────────────────┼───────────────────────────┼─────────────────┼────────────────────────────┤
│ block4e_se_squeeze            │ (None, 512)               │               0 │ block4e_activation[0][0]   │
│ (GlobalAveragePooling2D)      │                           │                 │                            │
├───────────────────────────────┼───────────────────────────┼─────────────────┼────────────────────────────┤
│ block4e_se_reshape (Reshape)  │ (None, 1, 1, 512)         │               0 │ block4e_se_squeeze[0][0]   │
├───────────────────────────────┼───────────────────────────┼─────────────────┼────────────────────────────┤
│ block4e_se_reduce (Conv2D)    │ (None, 1, 1, 32)          │          16,416 │ block4e_se_reshape[0][0]   │
├───────────────────────────────┼───────────────────────────┼─────────────────┼────────────────────────────┤
│ block4e_se_expand (Conv2D)    │ (None, 1, 1, 512)         │          16,896 │ block4e_se_reduce[0][0]    │
├───────────────────────────────┼───────────────────────────┼─────────────────┼────────────────────────────┤
│ block4e_se_excite (Multiply)  │ (None, 30, 8, 512)        │               0 │ block4e_activation[0][0],  │
│                               │                           │                 │ block4e_se_expand[0][0]    │
├───────────────────────────────┼───────────────────────────┼─────────────────┼────────────────────────────┤
│ block4e_project_conv (Conv2D) │ (None, 30, 8, 128)        │          65,536 │ block4e_se_excite[0][0]    │
├───────────────────────────────┼───────────────────────────┼─────────────────┼────────────────────────────┤
│ block4e_project_bn            │ (None, 30, 8, 128)        │             512 │ block4e_project_conv[0][0] │
│ (BatchNormalization)          │                           │                 │                            │
├───────────────────────────────┼───────────────────────────┼─────────────────┼────────────────────────────┤
│ block4e_drop (Dropout)        │ (None, 30, 8, 128)        │               0 │ block4e_project_bn[0][0]   │
├───────────────────────────────┼───────────────────────────┼─────────────────┼────────────────────────────┤
│ block4e_add (Add)             │ (None, 30, 8, 128)        │               0 │ block4e_drop[0][0],        │
│                               │                           │                 │ block4d_add[0][0]          │
├───────────────────────────────┼───────────────────────────┼─────────────────┼────────────────────────────┤
│ block4f_expand_conv (Conv2D)  │ (None, 30, 8, 512)        │          65,536 │ block4e_add[0][0]          │
├───────────────────────────────┼───────────────────────────┼─────────────────┼────────────────────────────┤
│ block4f_expand_bn             │ (None, 30, 8, 512)        │           2,048 │ block4f_expand_conv[0][0]  │
│ (BatchNormalization)          │                           │                 │                            │
├───────────────────────────────┼───────────────────────────┼─────────────────┼────────────────────────────┤
│ block4f_expand_activation     │ (None, 30, 8, 512)        │               0 │ block4f_expand_bn[0][0]    │
│ (Activation)                  │                           │                 │                            │
├───────────────────────────────┼───────────────────────────┼─────────────────┼────────────────────────────┤
│ block4f_dwconv2               │ (None, 30, 8, 512)        │           4,608 │ block4f_expand_activation… │
│ (DepthwiseConv2D)             │                           │                 │                            │
├───────────────────────────────┼───────────────────────────┼─────────────────┼────────────────────────────┤
│ block4f_bn                    │ (None, 30, 8, 512)        │           2,048 │ block4f_dwconv2[0][0]      │
│ (BatchNormalization)          │                           │                 │                            │
├───────────────────────────────┼───────────────────────────┼─────────────────┼────────────────────────────┤
│ block4f_activation            │ (None, 30, 8, 512)        │               0 │ block4f_bn[0][0]           │
│ (Activation)                  │                           │                 │                            │
├───────────────────────────────┼───────────────────────────┼─────────────────┼────────────────────────────┤
│ block4f_se_squeeze            │ (None, 512)               │               0 │ block4f_activation[0][0]   │
│ (GlobalAveragePooling2D)      │                           │                 │                            │
├───────────────────────────────┼───────────────────────────┼─────────────────┼────────────────────────────┤
│ block4f_se_reshape (Reshape)  │ (None, 1, 1, 512)         │               0 │ block4f_se_squeeze[0][0]   │
├───────────────────────────────┼───────────────────────────┼─────────────────┼────────────────────────────┤
│ block4f_se_reduce (Conv2D)    │ (None, 1, 1, 32)          │          16,416 │ block4f_se_reshape[0][0]   │
├───────────────────────────────┼───────────────────────────┼─────────────────┼────────────────────────────┤
│ block4f_se_expand (Conv2D)    │ (None, 1, 1, 512)         │          16,896 │ block4f_se_reduce[0][0]    │
├───────────────────────────────┼───────────────────────────┼─────────────────┼────────────────────────────┤
│ block4f_se_excite (Multiply)  │ (None, 30, 8, 512)        │               0 │ block4f_activation[0][0],  │
│                               │                           │                 │ block4f_se_expand[0][0]    │
├───────────────────────────────┼───────────────────────────┼─────────────────┼────────────────────────────┤
│ block4f_project_conv (Conv2D) │ (None, 30, 8, 128)        │          65,536 │ block4f_se_excite[0][0]    │
├───────────────────────────────┼───────────────────────────┼─────────────────┼────────────────────────────┤
│ block4f_project_bn            │ (None, 30, 8, 128)        │             512 │ block4f_project_conv[0][0] │
│ (BatchNormalization)          │                           │                 │                            │
├───────────────────────────────┼───────────────────────────┼─────────────────┼────────────────────────────┤
│ block4f_drop (Dropout)        │ (None, 30, 8, 128)        │               0 │ block4f_project_bn[0][0]   │
├───────────────────────────────┼───────────────────────────┼─────────────────┼────────────────────────────┤
│ block4f_add (Add)             │ (None, 30, 8, 128)        │               0 │ block4f_drop[0][0],        │
│                               │                           │                 │ block4e_add[0][0]          │
├───────────────────────────────┼───────────────────────────┼─────────────────┼────────────────────────────┤
│ block5a_expand_conv (Conv2D)  │ (None, 30, 8, 768)        │          98,304 │ block4f_add[0][0]          │
├───────────────────────────────┼───────────────────────────┼─────────────────┼────────────────────────────┤
│ block5a_expand_bn             │ (None, 30, 8, 768)        │           3,072 │ block5a_expand_conv[0][0]  │
│ (BatchNormalization)          │                           │                 │                            │
├───────────────────────────────┼───────────────────────────┼─────────────────┼────────────────────────────┤
│ block5a_expand_activation     │ (None, 30, 8, 768)        │               0 │ block5a_expand_bn[0][0]    │
│ (Activation)                  │                           │                 │                            │
├───────────────────────────────┼───────────────────────────┼─────────────────┼────────────────────────────┤
│ block5a_dwconv2               │ (None, 30, 8, 768)        │           6,912 │ block5a_expand_activation… │
│ (DepthwiseConv2D)             │                           │                 │                            │
├───────────────────────────────┼───────────────────────────┼─────────────────┼────────────────────────────┤
│ block5a_bn                    │ (None, 30, 8, 768)        │           3,072 │ block5a_dwconv2[0][0]      │
│ (BatchNormalization)          │                           │                 │                            │
├───────────────────────────────┼───────────────────────────┼─────────────────┼────────────────────────────┤
│ block5a_activation            │ (None, 30, 8, 768)        │               0 │ block5a_bn[0][0]           │
│ (Activation)                  │                           │                 │                            │
├───────────────────────────────┼───────────────────────────┼─────────────────┼────────────────────────────┤
│ block5a_se_squeeze            │ (None, 768)               │               0 │ block5a_activation[0][0]   │
│ (GlobalAveragePooling2D)      │                           │                 │                            │
├───────────────────────────────┼───────────────────────────┼─────────────────┼────────────────────────────┤
│ block5a_se_reshape (Reshape)  │ (None, 1, 1, 768)         │               0 │ block5a_se_squeeze[0][0]   │
├───────────────────────────────┼───────────────────────────┼─────────────────┼────────────────────────────┤
│ block5a_se_reduce (Conv2D)    │ (None, 1, 1, 32)          │          24,608 │ block5a_se_reshape[0][0]   │
├───────────────────────────────┼───────────────────────────┼─────────────────┼────────────────────────────┤
│ block5a_se_expand (Conv2D)    │ (None, 1, 1, 768)         │          25,344 │ block5a_se_reduce[0][0]    │
├───────────────────────────────┼───────────────────────────┼─────────────────┼────────────────────────────┤
│ block5a_se_excite (Multiply)  │ (None, 30, 8, 768)        │               0 │ block5a_activation[0][0],  │
│                               │                           │                 │ block5a_se_expand[0][0]    │
├───────────────────────────────┼───────────────────────────┼─────────────────┼────────────────────────────┤
│ block5a_project_conv (Conv2D) │ (None, 30, 8, 160)        │         122,880 │ block5a_se_excite[0][0]    │
├───────────────────────────────┼───────────────────────────┼─────────────────┼────────────────────────────┤
│ block5a_project_bn            │ (None, 30, 8, 160)        │             640 │ block5a_project_conv[0][0] │
│ (BatchNormalization)          │                           │                 │                            │
├───────────────────────────────┼───────────────────────────┼─────────────────┼────────────────────────────┤
│ block5b_expand_conv (Conv2D)  │ (None, 30, 8, 960)        │         153,600 │ block5a_project_bn[0][0]   │
├───────────────────────────────┼───────────────────────────┼─────────────────┼────────────────────────────┤
│ block5b_expand_bn             │ (None, 30, 8, 960)        │           3,840 │ block5b_expand_conv[0][0]  │
│ (BatchNormalization)          │                           │                 │                            │
├───────────────────────────────┼───────────────────────────┼─────────────────┼────────────────────────────┤
│ block5b_expand_activation     │ (None, 30, 8, 960)        │               0 │ block5b_expand_bn[0][0]    │
│ (Activation)                  │                           │                 │                            │
├───────────────────────────────┼───────────────────────────┼─────────────────┼────────────────────────────┤
│ block5b_dwconv2               │ (None, 30, 8, 960)        │           8,640 │ block5b_expand_activation… │
│ (DepthwiseConv2D)             │                           │                 │                            │
├───────────────────────────────┼───────────────────────────┼─────────────────┼────────────────────────────┤
│ block5b_bn                    │ (None, 30, 8, 960)        │           3,840 │ block5b_dwconv2[0][0]      │
│ (BatchNormalization)          │                           │                 │                            │
├───────────────────────────────┼───────────────────────────┼─────────────────┼────────────────────────────┤
│ block5b_activation            │ (None, 30, 8, 960)        │               0 │ block5b_bn[0][0]           │
│ (Activation)                  │                           │                 │                            │
├───────────────────────────────┼───────────────────────────┼─────────────────┼────────────────────────────┤
│ block5b_se_squeeze            │ (None, 960)               │               0 │ block5b_activation[0][0]   │
│ (GlobalAveragePooling2D)      │                           │                 │                            │
├───────────────────────────────┼───────────────────────────┼─────────────────┼────────────────────────────┤
│ block5b_se_reshape (Reshape)  │ (None, 1, 1, 960)         │               0 │ block5b_se_squeeze[0][0]   │
├───────────────────────────────┼───────────────────────────┼─────────────────┼────────────────────────────┤
│ block5b_se_reduce (Conv2D)    │ (None, 1, 1, 40)          │          38,440 │ block5b_se_reshape[0][0]   │
├───────────────────────────────┼───────────────────────────┼─────────────────┼────────────────────────────┤
│ block5b_se_expand (Conv2D)    │ (None, 1, 1, 960)         │          39,360 │ block5b_se_reduce[0][0]    │
├───────────────────────────────┼───────────────────────────┼─────────────────┼────────────────────────────┤
│ block5b_se_excite (Multiply)  │ (None, 30, 8, 960)        │               0 │ block5b_activation[0][0],  │
│                               │                           │                 │ block5b_se_expand[0][0]    │
├───────────────────────────────┼───────────────────────────┼─────────────────┼────────────────────────────┤
│ block5b_project_conv (Conv2D) │ (None, 30, 8, 160)        │         153,600 │ block5b_se_excite[0][0]    │
├───────────────────────────────┼───────────────────────────┼─────────────────┼────────────────────────────┤
│ block5b_project_bn            │ (None, 30, 8, 160)        │             640 │ block5b_project_conv[0][0] │
│ (BatchNormalization)          │                           │                 │                            │
├───────────────────────────────┼───────────────────────────┼─────────────────┼────────────────────────────┤
│ block5b_drop (Dropout)        │ (None, 30, 8, 160)        │               0 │ block5b_project_bn[0][0]   │
├───────────────────────────────┼───────────────────────────┼─────────────────┼────────────────────────────┤
│ block5b_add (Add)             │ (None, 30, 8, 160)        │               0 │ block5b_drop[0][0],        │
│                               │                           │                 │ block5a_project_bn[0][0]   │
├───────────────────────────────┼───────────────────────────┼─────────────────┼────────────────────────────┤
│ block5c_expand_conv (Conv2D)  │ (None, 30, 8, 960)        │         153,600 │ block5b_add[0][0]          │
├───────────────────────────────┼───────────────────────────┼─────────────────┼────────────────────────────┤
│ block5c_expand_bn             │ (None, 30, 8, 960)        │           3,840 │ block5c_expand_conv[0][0]  │
│ (BatchNormalization)          │                           │                 │                            │
├───────────────────────────────┼───────────────────────────┼─────────────────┼────────────────────────────┤
│ block5c_expand_activation     │ (None, 30, 8, 960)        │               0 │ block5c_expand_bn[0][0]    │
│ (Activation)                  │                           │                 │                            │
├───────────────────────────────┼───────────────────────────┼─────────────────┼────────────────────────────┤
│ block5c_dwconv2               │ (None, 30, 8, 960)        │           8,640 │ block5c_expand_activation… │
│ (DepthwiseConv2D)             │                           │                 │                            │
├───────────────────────────────┼───────────────────────────┼─────────────────┼────────────────────────────┤
│ block5c_bn                    │ (None, 30, 8, 960)        │           3,840 │ block5c_dwconv2[0][0]      │
│ (BatchNormalization)          │                           │                 │                            │
├───────────────────────────────┼───────────────────────────┼─────────────────┼────────────────────────────┤
│ block5c_activation            │ (None, 30, 8, 960)        │               0 │ block5c_bn[0][0]           │
│ (Activation)                  │                           │                 │                            │
├───────────────────────────────┼───────────────────────────┼─────────────────┼────────────────────────────┤
│ block5c_se_squeeze            │ (None, 960)               │               0 │ block5c_activation[0][0]   │
│ (GlobalAveragePooling2D)      │                           │                 │                            │
├───────────────────────────────┼───────────────────────────┼─────────────────┼────────────────────────────┤
│ block5c_se_reshape (Reshape)  │ (None, 1, 1, 960)         │               0 │ block5c_se_squeeze[0][0]   │
├───────────────────────────────┼───────────────────────────┼─────────────────┼────────────────────────────┤
│ block5c_se_reduce (Conv2D)    │ (None, 1, 1, 40)          │          38,440 │ block5c_se_reshape[0][0]   │
├───────────────────────────────┼───────────────────────────┼─────────────────┼────────────────────────────┤
│ block5c_se_expand (Conv2D)    │ (None, 1, 1, 960)         │          39,360 │ block5c_se_reduce[0][0]    │
├───────────────────────────────┼───────────────────────────┼─────────────────┼────────────────────────────┤
│ block5c_se_excite (Multiply)  │ (None, 30, 8, 960)        │               0 │ block5c_activation[0][0],  │
│                               │                           │                 │ block5c_se_expand[0][0]    │
├───────────────────────────────┼───────────────────────────┼─────────────────┼────────────────────────────┤
│ block5c_project_conv (Conv2D) │ (None, 30, 8, 160)        │         153,600 │ block5c_se_excite[0][0]    │
├───────────────────────────────┼───────────────────────────┼─────────────────┼────────────────────────────┤
│ block5c_project_bn            │ (None, 30, 8, 160)        │             640 │ block5c_project_conv[0][0] │
│ (BatchNormalization)          │                           │                 │                            │
├───────────────────────────────┼───────────────────────────┼─────────────────┼────────────────────────────┤
│ block5c_drop (Dropout)        │ (None, 30, 8, 160)        │               0 │ block5c_project_bn[0][0]   │
├───────────────────────────────┼───────────────────────────┼─────────────────┼────────────────────────────┤
│ block5c_add (Add)             │ (None, 30, 8, 160)        │               0 │ block5c_drop[0][0],        │
│                               │                           │                 │ block5b_add[0][0]          │
├───────────────────────────────┼───────────────────────────┼─────────────────┼────────────────────────────┤
│ block5d_expand_conv (Conv2D)  │ (None, 30, 8, 960)        │         153,600 │ block5c_add[0][0]          │
├───────────────────────────────┼───────────────────────────┼─────────────────┼────────────────────────────┤
│ block5d_expand_bn             │ (None, 30, 8, 960)        │           3,840 │ block5d_expand_conv[0][0]  │
│ (BatchNormalization)          │                           │                 │                            │
├───────────────────────────────┼───────────────────────────┼─────────────────┼────────────────────────────┤
│ block5d_expand_activation     │ (None, 30, 8, 960)        │               0 │ block5d_expand_bn[0][0]    │
│ (Activation)                  │                           │                 │                            │
├───────────────────────────────┼───────────────────────────┼─────────────────┼────────────────────────────┤
│ block5d_dwconv2               │ (None, 30, 8, 960)        │           8,640 │ block5d_expand_activation… │
│ (DepthwiseConv2D)             │                           │                 │                            │
├───────────────────────────────┼───────────────────────────┼─────────────────┼────────────────────────────┤
│ block5d_bn                    │ (None, 30, 8, 960)        │           3,840 │ block5d_dwconv2[0][0]      │
│ (BatchNormalization)          │                           │                 │                            │
├───────────────────────────────┼───────────────────────────┼─────────────────┼────────────────────────────┤
│ block5d_activation            │ (None, 30, 8, 960)        │               0 │ block5d_bn[0][0]           │
│ (Activation)                  │                           │                 │                            │
├───────────────────────────────┼───────────────────────────┼─────────────────┼────────────────────────────┤
│ block5d_se_squeeze            │ (None, 960)               │               0 │ block5d_activation[0][0]   │
│ (GlobalAveragePooling2D)      │                           │                 │                            │
├───────────────────────────────┼───────────────────────────┼─────────────────┼────────────────────────────┤
│ block5d_se_reshape (Reshape)  │ (None, 1, 1, 960)         │               0 │ block5d_se_squeeze[0][0]   │
├───────────────────────────────┼───────────────────────────┼─────────────────┼────────────────────────────┤
│ block5d_se_reduce (Conv2D)    │ (None, 1, 1, 40)          │          38,440 │ block5d_se_reshape[0][0]   │
├───────────────────────────────┼───────────────────────────┼─────────────────┼────────────────────────────┤
│ block5d_se_expand (Conv2D)    │ (None, 1, 1, 960)         │          39,360 │ block5d_se_reduce[0][0]    │
├───────────────────────────────┼───────────────────────────┼─────────────────┼────────────────────────────┤
│ block5d_se_excite (Multiply)  │ (None, 30, 8, 960)        │               0 │ block5d_activation[0][0],  │
│                               │                           │                 │ block5d_se_expand[0][0]    │
├───────────────────────────────┼───────────────────────────┼─────────────────┼────────────────────────────┤
│ block5d_project_conv (Conv2D) │ (None, 30, 8, 160)        │         153,600 │ block5d_se_excite[0][0]    │
├───────────────────────────────┼───────────────────────────┼─────────────────┼────────────────────────────┤
│ block5d_project_bn            │ (None, 30, 8, 160)        │             640 │ block5d_project_conv[0][0] │
│ (BatchNormalization)          │                           │                 │                            │
├───────────────────────────────┼───────────────────────────┼─────────────────┼────────────────────────────┤
│ block5d_drop (Dropout)        │ (None, 30, 8, 160)        │               0 │ block5d_project_bn[0][0]   │
├───────────────────────────────┼───────────────────────────┼─────────────────┼────────────────────────────┤
│ block5d_add (Add)             │ (None, 30, 8, 160)        │               0 │ block5d_drop[0][0],        │
│                               │                           │                 │ block5c_add[0][0]          │
├───────────────────────────────┼───────────────────────────┼─────────────────┼────────────────────────────┤
│ block5e_expand_conv (Conv2D)  │ (None, 30, 8, 960)        │         153,600 │ block5d_add[0][0]          │
├───────────────────────────────┼───────────────────────────┼─────────────────┼────────────────────────────┤
│ block5e_expand_bn             │ (None, 30, 8, 960)        │           3,840 │ block5e_expand_conv[0][0]  │
│ (BatchNormalization)          │                           │                 │                            │
├───────────────────────────────┼───────────────────────────┼─────────────────┼────────────────────────────┤
│ block5e_expand_activation     │ (None, 30, 8, 960)        │               0 │ block5e_expand_bn[0][0]    │
│ (Activation)                  │                           │                 │                            │
├───────────────────────────────┼───────────────────────────┼─────────────────┼────────────────────────────┤
│ block5e_dwconv2               │ (None, 30, 8, 960)        │           8,640 │ block5e_expand_activation… │
│ (DepthwiseConv2D)             │                           │                 │                            │
├───────────────────────────────┼───────────────────────────┼─────────────────┼────────────────────────────┤
│ block5e_bn                    │ (None, 30, 8, 960)        │           3,840 │ block5e_dwconv2[0][0]      │
│ (BatchNormalization)          │                           │                 │                            │
├───────────────────────────────┼───────────────────────────┼─────────────────┼────────────────────────────┤
│ block5e_activation            │ (None, 30, 8, 960)        │               0 │ block5e_bn[0][0]           │
│ (Activation)                  │                           │                 │                            │
├───────────────────────────────┼───────────────────────────┼─────────────────┼────────────────────────────┤
│ block5e_se_squeeze            │ (None, 960)               │               0 │ block5e_activation[0][0]   │
│ (GlobalAveragePooling2D)      │                           │                 │                            │
├───────────────────────────────┼───────────────────────────┼─────────────────┼────────────────────────────┤
│ block5e_se_reshape (Reshape)  │ (None, 1, 1, 960)         │               0 │ block5e_se_squeeze[0][0]   │
├───────────────────────────────┼───────────────────────────┼─────────────────┼────────────────────────────┤
│ block5e_se_reduce (Conv2D)    │ (None, 1, 1, 40)          │          38,440 │ block5e_se_reshape[0][0]   │
├───────────────────────────────┼───────────────────────────┼─────────────────┼────────────────────────────┤
│ block5e_se_expand (Conv2D)    │ (None, 1, 1, 960)         │          39,360 │ block5e_se_reduce[0][0]    │
├───────────────────────────────┼───────────────────────────┼─────────────────┼────────────────────────────┤
│ block5e_se_excite (Multiply)  │ (None, 30, 8, 960)        │               0 │ block5e_activation[0][0],  │
│                               │                           │                 │ block5e_se_expand[0][0]    │
├───────────────────────────────┼───────────────────────────┼─────────────────┼────────────────────────────┤
│ block5e_project_conv (Conv2D) │ (None, 30, 8, 160)        │         153,600 │ block5e_se_excite[0][0]    │
├───────────────────────────────┼───────────────────────────┼─────────────────┼────────────────────────────┤
│ block5e_project_bn            │ (None, 30, 8, 160)        │             640 │ block5e_project_conv[0][0] │
│ (BatchNormalization)          │                           │                 │                            │
├───────────────────────────────┼───────────────────────────┼─────────────────┼────────────────────────────┤
│ block5e_drop (Dropout)        │ (None, 30, 8, 160)        │               0 │ block5e_project_bn[0][0]   │
├───────────────────────────────┼───────────────────────────┼─────────────────┼────────────────────────────┤
│ block5e_add (Add)             │ (None, 30, 8, 160)        │               0 │ block5e_drop[0][0],        │
│                               │                           │                 │ block5d_add[0][0]          │
├───────────────────────────────┼───────────────────────────┼─────────────────┼────────────────────────────┤
│ block5f_expand_conv (Conv2D)  │ (None, 30, 8, 960)        │         153,600 │ block5e_add[0][0]          │
├───────────────────────────────┼───────────────────────────┼─────────────────┼────────────────────────────┤
│ block5f_expand_bn             │ (None, 30, 8, 960)        │           3,840 │ block5f_expand_conv[0][0]  │
│ (BatchNormalization)          │                           │                 │                            │
├───────────────────────────────┼───────────────────────────┼─────────────────┼────────────────────────────┤
│ block5f_expand_activation     │ (None, 30, 8, 960)        │               0 │ block5f_expand_bn[0][0]    │
│ (Activation)                  │                           │                 │                            │
├───────────────────────────────┼───────────────────────────┼─────────────────┼────────────────────────────┤
│ block5f_dwconv2               │ (None, 30, 8, 960)        │           8,640 │ block5f_expand_activation… │
│ (DepthwiseConv2D)             │                           │                 │                            │
├───────────────────────────────┼───────────────────────────┼─────────────────┼────────────────────────────┤
│ block5f_bn                    │ (None, 30, 8, 960)        │           3,840 │ block5f_dwconv2[0][0]      │
│ (BatchNormalization)          │                           │                 │                            │
├───────────────────────────────┼───────────────────────────┼─────────────────┼────────────────────────────┤
│ block5f_activation            │ (None, 30, 8, 960)        │               0 │ block5f_bn[0][0]           │
│ (Activation)                  │                           │                 │                            │
├───────────────────────────────┼───────────────────────────┼─────────────────┼────────────────────────────┤
│ block5f_se_squeeze            │ (None, 960)               │               0 │ block5f_activation[0][0]   │
│ (GlobalAveragePooling2D)      │                           │                 │                            │
├───────────────────────────────┼───────────────────────────┼─────────────────┼────────────────────────────┤
│ block5f_se_reshape (Reshape)  │ (None, 1, 1, 960)         │               0 │ block5f_se_squeeze[0][0]   │
├───────────────────────────────┼───────────────────────────┼─────────────────┼────────────────────────────┤
│ block5f_se_reduce (Conv2D)    │ (None, 1, 1, 40)          │          38,440 │ block5f_se_reshape[0][0]   │
├───────────────────────────────┼───────────────────────────┼─────────────────┼────────────────────────────┤
│ block5f_se_expand (Conv2D)    │ (None, 1, 1, 960)         │          39,360 │ block5f_se_reduce[0][0]    │
├───────────────────────────────┼───────────────────────────┼─────────────────┼────────────────────────────┤
│ block5f_se_excite (Multiply)  │ (None, 30, 8, 960)        │               0 │ block5f_activation[0][0],  │
│                               │                           │                 │ block5f_se_expand[0][0]    │
├───────────────────────────────┼───────────────────────────┼─────────────────┼────────────────────────────┤
│ block5f_project_conv (Conv2D) │ (None, 30, 8, 160)        │         153,600 │ block5f_se_excite[0][0]    │
├───────────────────────────────┼───────────────────────────┼─────────────────┼────────────────────────────┤
│ block5f_project_bn            │ (None, 30, 8, 160)        │             640 │ block5f_project_conv[0][0] │
│ (BatchNormalization)          │                           │                 │                            │
├───────────────────────────────┼───────────────────────────┼─────────────────┼────────────────────────────┤
│ block5f_drop (Dropout)        │ (None, 30, 8, 160)        │               0 │ block5f_project_bn[0][0]   │
├───────────────────────────────┼───────────────────────────┼─────────────────┼────────────────────────────┤
│ block5f_add (Add)             │ (None, 30, 8, 160)        │               0 │ block5f_drop[0][0],        │
│                               │                           │                 │ block5e_add[0][0]          │
├───────────────────────────────┼───────────────────────────┼─────────────────┼────────────────────────────┤
│ block5g_expand_conv (Conv2D)  │ (None, 30, 8, 960)        │         153,600 │ block5f_add[0][0]          │
├───────────────────────────────┼───────────────────────────┼─────────────────┼────────────────────────────┤
│ block5g_expand_bn             │ (None, 30, 8, 960)        │           3,840 │ block5g_expand_conv[0][0]  │
│ (BatchNormalization)          │                           │                 │                            │
├───────────────────────────────┼───────────────────────────┼─────────────────┼────────────────────────────┤
│ block5g_expand_activation     │ (None, 30, 8, 960)        │               0 │ block5g_expand_bn[0][0]    │
│ (Activation)                  │                           │                 │                            │
├───────────────────────────────┼───────────────────────────┼─────────────────┼────────────────────────────┤
│ block5g_dwconv2               │ (None, 30, 8, 960)        │           8,640 │ block5g_expand_activation… │
│ (DepthwiseConv2D)             │                           │                 │                            │
├───────────────────────────────┼───────────────────────────┼─────────────────┼────────────────────────────┤
│ block5g_bn                    │ (None, 30, 8, 960)        │           3,840 │ block5g_dwconv2[0][0]      │
│ (BatchNormalization)          │                           │                 │                            │
├───────────────────────────────┼───────────────────────────┼─────────────────┼────────────────────────────┤
│ block5g_activation            │ (None, 30, 8, 960)        │               0 │ block5g_bn[0][0]           │
│ (Activation)                  │                           │                 │                            │
├───────────────────────────────┼───────────────────────────┼─────────────────┼────────────────────────────┤
│ block5g_se_squeeze            │ (None, 960)               │               0 │ block5g_activation[0][0]   │
│ (GlobalAveragePooling2D)      │                           │                 │                            │
├───────────────────────────────┼───────────────────────────┼─────────────────┼────────────────────────────┤
│ block5g_se_reshape (Reshape)  │ (None, 1, 1, 960)         │               0 │ block5g_se_squeeze[0][0]   │
├───────────────────────────────┼───────────────────────────┼─────────────────┼────────────────────────────┤
│ block5g_se_reduce (Conv2D)    │ (None, 1, 1, 40)          │          38,440 │ block5g_se_reshape[0][0]   │
├───────────────────────────────┼───────────────────────────┼─────────────────┼────────────────────────────┤
│ block5g_se_expand (Conv2D)    │ (None, 1, 1, 960)         │          39,360 │ block5g_se_reduce[0][0]    │
├───────────────────────────────┼───────────────────────────┼─────────────────┼────────────────────────────┤
│ block5g_se_excite (Multiply)  │ (None, 30, 8, 960)        │               0 │ block5g_activation[0][0],  │
│                               │                           │                 │ block5g_se_expand[0][0]    │
├───────────────────────────────┼───────────────────────────┼─────────────────┼────────────────────────────┤
│ block5g_project_conv (Conv2D) │ (None, 30, 8, 160)        │         153,600 │ block5g_se_excite[0][0]    │
├───────────────────────────────┼───────────────────────────┼─────────────────┼────────────────────────────┤
│ block5g_project_bn            │ (None, 30, 8, 160)        │             640 │ block5g_project_conv[0][0] │
│ (BatchNormalization)          │                           │                 │                            │
├───────────────────────────────┼───────────────────────────┼─────────────────┼────────────────────────────┤
│ block5g_drop (Dropout)        │ (None, 30, 8, 160)        │               0 │ block5g_project_bn[0][0]   │
├───────────────────────────────┼───────────────────────────┼─────────────────┼────────────────────────────┤
│ block5g_add (Add)             │ (None, 30, 8, 160)        │               0 │ block5g_drop[0][0],        │
│                               │                           │                 │ block5f_add[0][0]          │
├───────────────────────────────┼───────────────────────────┼─────────────────┼────────────────────────────┤
│ block5h_expand_conv (Conv2D)  │ (None, 30, 8, 960)        │         153,600 │ block5g_add[0][0]          │
├───────────────────────────────┼───────────────────────────┼─────────────────┼────────────────────────────┤
│ block5h_expand_bn             │ (None, 30, 8, 960)        │           3,840 │ block5h_expand_conv[0][0]  │
│ (BatchNormalization)          │                           │                 │                            │
├───────────────────────────────┼───────────────────────────┼─────────────────┼────────────────────────────┤
│ block5h_expand_activation     │ (None, 30, 8, 960)        │               0 │ block5h_expand_bn[0][0]    │
│ (Activation)                  │                           │                 │                            │
├───────────────────────────────┼───────────────────────────┼─────────────────┼────────────────────────────┤
│ block5h_dwconv2               │ (None, 30, 8, 960)        │           8,640 │ block5h_expand_activation… │
│ (DepthwiseConv2D)             │                           │                 │                            │
├───────────────────────────────┼───────────────────────────┼─────────────────┼────────────────────────────┤
│ block5h_bn                    │ (None, 30, 8, 960)        │           3,840 │ block5h_dwconv2[0][0]      │
│ (BatchNormalization)          │                           │                 │                            │
├───────────────────────────────┼───────────────────────────┼─────────────────┼────────────────────────────┤
│ block5h_activation            │ (None, 30, 8, 960)        │               0 │ block5h_bn[0][0]           │
│ (Activation)                  │                           │                 │                            │
├───────────────────────────────┼───────────────────────────┼─────────────────┼────────────────────────────┤
│ block5h_se_squeeze            │ (None, 960)               │               0 │ block5h_activation[0][0]   │
│ (GlobalAveragePooling2D)      │                           │                 │                            │
├───────────────────────────────┼───────────────────────────┼─────────────────┼────────────────────────────┤
│ block5h_se_reshape (Reshape)  │ (None, 1, 1, 960)         │               0 │ block5h_se_squeeze[0][0]   │
├───────────────────────────────┼───────────────────────────┼─────────────────┼────────────────────────────┤
│ block5h_se_reduce (Conv2D)    │ (None, 1, 1, 40)          │          38,440 │ block5h_se_reshape[0][0]   │
├───────────────────────────────┼───────────────────────────┼─────────────────┼────────────────────────────┤
│ block5h_se_expand (Conv2D)    │ (None, 1, 1, 960)         │          39,360 │ block5h_se_reduce[0][0]    │
├───────────────────────────────┼───────────────────────────┼─────────────────┼────────────────────────────┤
│ block5h_se_excite (Multiply)  │ (None, 30, 8, 960)        │               0 │ block5h_activation[0][0],  │
│                               │                           │                 │ block5h_se_expand[0][0]    │
├───────────────────────────────┼───────────────────────────┼─────────────────┼────────────────────────────┤
│ block5h_project_conv (Conv2D) │ (None, 30, 8, 160)        │         153,600 │ block5h_se_excite[0][0]    │
├───────────────────────────────┼───────────────────────────┼─────────────────┼────────────────────────────┤
│ block5h_project_bn            │ (None, 30, 8, 160)        │             640 │ block5h_project_conv[0][0] │
│ (BatchNormalization)          │                           │                 │                            │
├───────────────────────────────┼───────────────────────────┼─────────────────┼────────────────────────────┤
│ block5h_drop (Dropout)        │ (None, 30, 8, 160)        │               0 │ block5h_project_bn[0][0]   │
├───────────────────────────────┼───────────────────────────┼─────────────────┼────────────────────────────┤
│ block5h_add (Add)             │ (None, 30, 8, 160)        │               0 │ block5h_drop[0][0],        │
│                               │                           │                 │ block5g_add[0][0]          │
├───────────────────────────────┼───────────────────────────┼─────────────────┼────────────────────────────┤
│ block5i_expand_conv (Conv2D)  │ (None, 30, 8, 960)        │         153,600 │ block5h_add[0][0]          │
├───────────────────────────────┼───────────────────────────┼─────────────────┼────────────────────────────┤
│ block5i_expand_bn             │ (None, 30, 8, 960)        │           3,840 │ block5i_expand_conv[0][0]  │
│ (BatchNormalization)          │                           │                 │                            │
├───────────────────────────────┼───────────────────────────┼─────────────────┼────────────────────────────┤
│ block5i_expand_activation     │ (None, 30, 8, 960)        │               0 │ block5i_expand_bn[0][0]    │
│ (Activation)                  │                           │                 │                            │
├───────────────────────────────┼───────────────────────────┼─────────────────┼────────────────────────────┤
│ block5i_dwconv2               │ (None, 30, 8, 960)        │           8,640 │ block5i_expand_activation… │
│ (DepthwiseConv2D)             │                           │                 │                            │
├───────────────────────────────┼───────────────────────────┼─────────────────┼────────────────────────────┤
│ block5i_bn                    │ (None, 30, 8, 960)        │           3,840 │ block5i_dwconv2[0][0]      │
│ (BatchNormalization)          │                           │                 │                            │
├───────────────────────────────┼───────────────────────────┼─────────────────┼────────────────────────────┤
│ block5i_activation            │ (None, 30, 8, 960)        │               0 │ block5i_bn[0][0]           │
│ (Activation)                  │                           │                 │                            │
├───────────────────────────────┼───────────────────────────┼─────────────────┼────────────────────────────┤
│ block5i_se_squeeze            │ (None, 960)               │               0 │ block5i_activation[0][0]   │
│ (GlobalAveragePooling2D)      │                           │                 │                            │
├───────────────────────────────┼───────────────────────────┼─────────────────┼────────────────────────────┤
│ block5i_se_reshape (Reshape)  │ (None, 1, 1, 960)         │               0 │ block5i_se_squeeze[0][0]   │
├───────────────────────────────┼───────────────────────────┼─────────────────┼────────────────────────────┤
│ block5i_se_reduce (Conv2D)    │ (None, 1, 1, 40)          │          38,440 │ block5i_se_reshape[0][0]   │
├───────────────────────────────┼───────────────────────────┼─────────────────┼────────────────────────────┤
│ block5i_se_expand (Conv2D)    │ (None, 1, 1, 960)         │          39,360 │ block5i_se_reduce[0][0]    │
├───────────────────────────────┼───────────────────────────┼─────────────────┼────────────────────────────┤
│ block5i_se_excite (Multiply)  │ (None, 30, 8, 960)        │               0 │ block5i_activation[0][0],  │
│                               │                           │                 │ block5i_se_expand[0][0]    │
├───────────────────────────────┼───────────────────────────┼─────────────────┼────────────────────────────┤
│ block5i_project_conv (Conv2D) │ (None, 30, 8, 160)        │         153,600 │ block5i_se_excite[0][0]    │
├───────────────────────────────┼───────────────────────────┼─────────────────┼────────────────────────────┤
│ block5i_project_bn            │ (None, 30, 8, 160)        │             640 │ block5i_project_conv[0][0] │
│ (BatchNormalization)          │                           │                 │                            │
├───────────────────────────────┼───────────────────────────┼─────────────────┼────────────────────────────┤
│ block5i_drop (Dropout)        │ (None, 30, 8, 160)        │               0 │ block5i_project_bn[0][0]   │
├───────────────────────────────┼───────────────────────────┼─────────────────┼────────────────────────────┤
│ block5i_add (Add)             │ (None, 30, 8, 160)        │               0 │ block5i_drop[0][0],        │
│                               │                           │                 │ block5h_add[0][0]          │
├───────────────────────────────┼───────────────────────────┼─────────────────┼────────────────────────────┤
│ block6a_expand_conv (Conv2D)  │ (None, 30, 8, 960)        │         153,600 │ block5i_add[0][0]          │
├───────────────────────────────┼───────────────────────────┼─────────────────┼────────────────────────────┤
│ block6a_expand_bn             │ (None, 30, 8, 960)        │           3,840 │ block6a_expand_conv[0][0]  │
│ (BatchNormalization)          │                           │                 │                            │
├───────────────────────────────┼───────────────────────────┼─────────────────┼────────────────────────────┤
│ block6a_expand_activation     │ (None, 30, 8, 960)        │               0 │ block6a_expand_bn[0][0]    │
│ (Activation)                  │                           │                 │                            │
├───────────────────────────────┼───────────────────────────┼─────────────────┼────────────────────────────┤
│ block6a_dwconv2               │ (None, 15, 4, 960)        │           8,640 │ block6a_expand_activation… │
│ (DepthwiseConv2D)             │                           │                 │                            │
├───────────────────────────────┼───────────────────────────┼─────────────────┼────────────────────────────┤
│ block6a_bn                    │ (None, 15, 4, 960)        │           3,840 │ block6a_dwconv2[0][0]      │
│ (BatchNormalization)          │                           │                 │                            │
├───────────────────────────────┼───────────────────────────┼─────────────────┼────────────────────────────┤
│ block6a_activation            │ (None, 15, 4, 960)        │               0 │ block6a_bn[0][0]           │
│ (Activation)                  │                           │                 │                            │
├───────────────────────────────┼───────────────────────────┼─────────────────┼────────────────────────────┤
│ block6a_se_squeeze            │ (None, 960)               │               0 │ block6a_activation[0][0]   │
│ (GlobalAveragePooling2D)      │                           │                 │                            │
├───────────────────────────────┼───────────────────────────┼─────────────────┼────────────────────────────┤
│ block6a_se_reshape (Reshape)  │ (None, 1, 1, 960)         │               0 │ block6a_se_squeeze[0][0]   │
├───────────────────────────────┼───────────────────────────┼─────────────────┼────────────────────────────┤
│ block6a_se_reduce (Conv2D)    │ (None, 1, 1, 40)          │          38,440 │ block6a_se_reshape[0][0]   │
├───────────────────────────────┼───────────────────────────┼─────────────────┼────────────────────────────┤
│ block6a_se_expand (Conv2D)    │ (None, 1, 1, 960)         │          39,360 │ block6a_se_reduce[0][0]    │
├───────────────────────────────┼───────────────────────────┼─────────────────┼────────────────────────────┤
│ block6a_se_excite (Multiply)  │ (None, 15, 4, 960)        │               0 │ block6a_activation[0][0],  │
│                               │                           │                 │ block6a_se_expand[0][0]    │
├───────────────────────────────┼───────────────────────────┼─────────────────┼────────────────────────────┤
│ block6a_project_conv (Conv2D) │ (None, 15, 4, 256)        │         245,760 │ block6a_se_excite[0][0]    │
├───────────────────────────────┼───────────────────────────┼─────────────────┼────────────────────────────┤
│ block6a_project_bn            │ (None, 15, 4, 256)        │           1,024 │ block6a_project_conv[0][0] │
│ (BatchNormalization)          │                           │                 │                            │
├───────────────────────────────┼───────────────────────────┼─────────────────┼────────────────────────────┤
│ block6b_expand_conv (Conv2D)  │ (None, 15, 4, 1536)       │         393,216 │ block6a_project_bn[0][0]   │
├───────────────────────────────┼───────────────────────────┼─────────────────┼────────────────────────────┤
│ block6b_expand_bn             │ (None, 15, 4, 1536)       │           6,144 │ block6b_expand_conv[0][0]  │
│ (BatchNormalization)          │                           │                 │                            │
├───────────────────────────────┼───────────────────────────┼─────────────────┼────────────────────────────┤
│ block6b_expand_activation     │ (None, 15, 4, 1536)       │               0 │ block6b_expand_bn[0][0]    │
│ (Activation)                  │                           │                 │                            │
├───────────────────────────────┼───────────────────────────┼─────────────────┼────────────────────────────┤
│ block6b_dwconv2               │ (None, 15, 4, 1536)       │          13,824 │ block6b_expand_activation… │
│ (DepthwiseConv2D)             │                           │                 │                            │
├───────────────────────────────┼───────────────────────────┼─────────────────┼────────────────────────────┤
│ block6b_bn                    │ (None, 15, 4, 1536)       │           6,144 │ block6b_dwconv2[0][0]      │
│ (BatchNormalization)          │                           │                 │                            │
├───────────────────────────────┼───────────────────────────┼─────────────────┼────────────────────────────┤
│ block6b_activation            │ (None, 15, 4, 1536)       │               0 │ block6b_bn[0][0]           │
│ (Activation)                  │                           │                 │                            │
├───────────────────────────────┼───────────────────────────┼─────────────────┼────────────────────────────┤
│ block6b_se_squeeze            │ (None, 1536)              │               0 │ block6b_activation[0][0]   │
│ (GlobalAveragePooling2D)      │                           │                 │                            │
├───────────────────────────────┼───────────────────────────┼─────────────────┼────────────────────────────┤
│ block6b_se_reshape (Reshape)  │ (None, 1, 1, 1536)        │               0 │ block6b_se_squeeze[0][0]   │
├───────────────────────────────┼───────────────────────────┼─────────────────┼────────────────────────────┤
│ block6b_se_reduce (Conv2D)    │ (None, 1, 1, 64)          │          98,368 │ block6b_se_reshape[0][0]   │
├───────────────────────────────┼───────────────────────────┼─────────────────┼────────────────────────────┤
│ block6b_se_expand (Conv2D)    │ (None, 1, 1, 1536)        │          99,840 │ block6b_se_reduce[0][0]    │
├───────────────────────────────┼───────────────────────────┼─────────────────┼────────────────────────────┤
│ block6b_se_excite (Multiply)  │ (None, 15, 4, 1536)       │               0 │ block6b_activation[0][0],  │
│                               │                           │                 │ block6b_se_expand[0][0]    │
├───────────────────────────────┼───────────────────────────┼─────────────────┼────────────────────────────┤
│ block6b_project_conv (Conv2D) │ (None, 15, 4, 256)        │         393,216 │ block6b_se_excite[0][0]    │
├───────────────────────────────┼───────────────────────────┼─────────────────┼────────────────────────────┤
│ block6b_project_bn            │ (None, 15, 4, 256)        │           1,024 │ block6b_project_conv[0][0] │
│ (BatchNormalization)          │                           │                 │                            │
├───────────────────────────────┼───────────────────────────┼─────────────────┼────────────────────────────┤
│ block6b_drop (Dropout)        │ (None, 15, 4, 256)        │               0 │ block6b_project_bn[0][0]   │
├───────────────────────────────┼───────────────────────────┼─────────────────┼────────────────────────────┤
│ block6b_add (Add)             │ (None, 15, 4, 256)        │               0 │ block6b_drop[0][0],        │
│                               │                           │                 │ block6a_project_bn[0][0]   │
├───────────────────────────────┼───────────────────────────┼─────────────────┼────────────────────────────┤
│ block6c_expand_conv (Conv2D)  │ (None, 15, 4, 1536)       │         393,216 │ block6b_add[0][0]          │
├───────────────────────────────┼───────────────────────────┼─────────────────┼────────────────────────────┤
│ block6c_expand_bn             │ (None, 15, 4, 1536)       │           6,144 │ block6c_expand_conv[0][0]  │
│ (BatchNormalization)          │                           │                 │                            │
├───────────────────────────────┼───────────────────────────┼─────────────────┼────────────────────────────┤
│ block6c_expand_activation     │ (None, 15, 4, 1536)       │               0 │ block6c_expand_bn[0][0]    │
│ (Activation)                  │                           │                 │                            │
├───────────────────────────────┼───────────────────────────┼─────────────────┼────────────────────────────┤
│ block6c_dwconv2               │ (None, 15, 4, 1536)       │          13,824 │ block6c_expand_activation… │
│ (DepthwiseConv2D)             │                           │                 │                            │
├───────────────────────────────┼───────────────────────────┼─────────────────┼────────────────────────────┤
│ block6c_bn                    │ (None, 15, 4, 1536)       │           6,144 │ block6c_dwconv2[0][0]      │
│ (BatchNormalization)          │                           │                 │                            │
├───────────────────────────────┼───────────────────────────┼─────────────────┼────────────────────────────┤
│ block6c_activation            │ (None, 15, 4, 1536)       │               0 │ block6c_bn[0][0]           │
│ (Activation)                  │                           │                 │                            │
├───────────────────────────────┼───────────────────────────┼─────────────────┼────────────────────────────┤
│ block6c_se_squeeze            │ (None, 1536)              │               0 │ block6c_activation[0][0]   │
│ (GlobalAveragePooling2D)      │                           │                 │                            │
├───────────────────────────────┼───────────────────────────┼─────────────────┼────────────────────────────┤
│ block6c_se_reshape (Reshape)  │ (None, 1, 1, 1536)        │               0 │ block6c_se_squeeze[0][0]   │
├───────────────────────────────┼───────────────────────────┼─────────────────┼────────────────────────────┤
│ block6c_se_reduce (Conv2D)    │ (None, 1, 1, 64)          │          98,368 │ block6c_se_reshape[0][0]   │
├───────────────────────────────┼───────────────────────────┼─────────────────┼────────────────────────────┤
│ block6c_se_expand (Conv2D)    │ (None, 1, 1, 1536)        │          99,840 │ block6c_se_reduce[0][0]    │
├───────────────────────────────┼───────────────────────────┼─────────────────┼────────────────────────────┤
│ block6c_se_excite (Multiply)  │ (None, 15, 4, 1536)       │               0 │ block6c_activation[0][0],  │
│                               │                           │                 │ block6c_se_expand[0][0]    │
├───────────────────────────────┼───────────────────────────┼─────────────────┼────────────────────────────┤
│ block6c_project_conv (Conv2D) │ (None, 15, 4, 256)        │         393,216 │ block6c_se_excite[0][0]    │
├───────────────────────────────┼───────────────────────────┼─────────────────┼────────────────────────────┤
│ block6c_project_bn            │ (None, 15, 4, 256)        │           1,024 │ block6c_project_conv[0][0] │
│ (BatchNormalization)          │                           │                 │                            │
├───────────────────────────────┼───────────────────────────┼─────────────────┼────────────────────────────┤
│ block6c_drop (Dropout)        │ (None, 15, 4, 256)        │               0 │ block6c_project_bn[0][0]   │
├───────────────────────────────┼───────────────────────────┼─────────────────┼────────────────────────────┤
│ block6c_add (Add)             │ (None, 15, 4, 256)        │               0 │ block6c_drop[0][0],        │
│                               │                           │                 │ block6b_add[0][0]          │
├───────────────────────────────┼───────────────────────────┼─────────────────┼────────────────────────────┤
│ block6d_expand_conv (Conv2D)  │ (None, 15, 4, 1536)       │         393,216 │ block6c_add[0][0]          │
├───────────────────────────────┼───────────────────────────┼─────────────────┼────────────────────────────┤
│ block6d_expand_bn             │ (None, 15, 4, 1536)       │           6,144 │ block6d_expand_conv[0][0]  │
│ (BatchNormalization)          │                           │                 │                            │
├───────────────────────────────┼───────────────────────────┼─────────────────┼────────────────────────────┤
│ block6d_expand_activation     │ (None, 15, 4, 1536)       │               0 │ block6d_expand_bn[0][0]    │
│ (Activation)                  │                           │                 │                            │
├───────────────────────────────┼───────────────────────────┼─────────────────┼────────────────────────────┤
│ block6d_dwconv2               │ (None, 15, 4, 1536)       │          13,824 │ block6d_expand_activation… │
│ (DepthwiseConv2D)             │                           │                 │                            │
├───────────────────────────────┼───────────────────────────┼─────────────────┼────────────────────────────┤
│ block6d_bn                    │ (None, 15, 4, 1536)       │           6,144 │ block6d_dwconv2[0][0]      │
│ (BatchNormalization)          │                           │                 │                            │
├───────────────────────────────┼───────────────────────────┼─────────────────┼────────────────────────────┤
│ block6d_activation            │ (None, 15, 4, 1536)       │               0 │ block6d_bn[0][0]           │
│ (Activation)                  │                           │                 │                            │
├───────────────────────────────┼───────────────────────────┼─────────────────┼────────────────────────────┤
│ block6d_se_squeeze            │ (None, 1536)              │               0 │ block6d_activation[0][0]   │
│ (GlobalAveragePooling2D)      │                           │                 │                            │
├───────────────────────────────┼───────────────────────────┼─────────────────┼────────────────────────────┤
│ block6d_se_reshape (Reshape)  │ (None, 1, 1, 1536)        │               0 │ block6d_se_squeeze[0][0]   │
├───────────────────────────────┼───────────────────────────┼─────────────────┼────────────────────────────┤
│ block6d_se_reduce (Conv2D)    │ (None, 1, 1, 64)          │          98,368 │ block6d_se_reshape[0][0]   │
├───────────────────────────────┼───────────────────────────┼─────────────────┼────────────────────────────┤
│ block6d_se_expand (Conv2D)    │ (None, 1, 1, 1536)        │          99,840 │ block6d_se_reduce[0][0]    │
├───────────────────────────────┼───────────────────────────┼─────────────────┼────────────────────────────┤
│ block6d_se_excite (Multiply)  │ (None, 15, 4, 1536)       │               0 │ block6d_activation[0][0],  │
│                               │                           │                 │ block6d_se_expand[0][0]    │
├───────────────────────────────┼───────────────────────────┼─────────────────┼────────────────────────────┤
│ block6d_project_conv (Conv2D) │ (None, 15, 4, 256)        │         393,216 │ block6d_se_excite[0][0]    │
├───────────────────────────────┼───────────────────────────┼─────────────────┼────────────────────────────┤
│ block6d_project_bn            │ (None, 15, 4, 256)        │           1,024 │ block6d_project_conv[0][0] │
│ (BatchNormalization)          │                           │                 │                            │
├───────────────────────────────┼───────────────────────────┼─────────────────┼────────────────────────────┤
│ block6d_drop (Dropout)        │ (None, 15, 4, 256)        │               0 │ block6d_project_bn[0][0]   │
├───────────────────────────────┼───────────────────────────┼─────────────────┼────────────────────────────┤
│ block6d_add (Add)             │ (None, 15, 4, 256)        │               0 │ block6d_drop[0][0],        │
│                               │                           │                 │ block6c_add[0][0]          │
├───────────────────────────────┼───────────────────────────┼─────────────────┼────────────────────────────┤
│ block6e_expand_conv (Conv2D)  │ (None, 15, 4, 1536)       │         393,216 │ block6d_add[0][0]          │
├───────────────────────────────┼───────────────────────────┼─────────────────┼────────────────────────────┤
│ block6e_expand_bn             │ (None, 15, 4, 1536)       │           6,144 │ block6e_expand_conv[0][0]  │
│ (BatchNormalization)          │                           │                 │                            │
├───────────────────────────────┼───────────────────────────┼─────────────────┼────────────────────────────┤
│ block6e_expand_activation     │ (None, 15, 4, 1536)       │               0 │ block6e_expand_bn[0][0]    │
│ (Activation)                  │                           │                 │                            │
├───────────────────────────────┼───────────────────────────┼─────────────────┼────────────────────────────┤
│ block6e_dwconv2               │ (None, 15, 4, 1536)       │          13,824 │ block6e_expand_activation… │
│ (DepthwiseConv2D)             │                           │                 │                            │
├───────────────────────────────┼───────────────────────────┼─────────────────┼────────────────────────────┤
│ block6e_bn                    │ (None, 15, 4, 1536)       │           6,144 │ block6e_dwconv2[0][0]      │
│ (BatchNormalization)          │                           │                 │                            │
├───────────────────────────────┼───────────────────────────┼─────────────────┼────────────────────────────┤
│ block6e_activation            │ (None, 15, 4, 1536)       │               0 │ block6e_bn[0][0]           │
│ (Activation)                  │                           │                 │                            │
├───────────────────────────────┼───────────────────────────┼─────────────────┼────────────────────────────┤
│ block6e_se_squeeze            │ (None, 1536)              │               0 │ block6e_activation[0][0]   │
│ (GlobalAveragePooling2D)      │                           │                 │                            │
├───────────────────────────────┼───────────────────────────┼─────────────────┼────────────────────────────┤
│ block6e_se_reshape (Reshape)  │ (None, 1, 1, 1536)        │               0 │ block6e_se_squeeze[0][0]   │
├───────────────────────────────┼───────────────────────────┼─────────────────┼────────────────────────────┤
│ block6e_se_reduce (Conv2D)    │ (None, 1, 1, 64)          │          98,368 │ block6e_se_reshape[0][0]   │
├───────────────────────────────┼───────────────────────────┼─────────────────┼────────────────────────────┤
│ block6e_se_expand (Conv2D)    │ (None, 1, 1, 1536)        │          99,840 │ block6e_se_reduce[0][0]    │
├───────────────────────────────┼───────────────────────────┼─────────────────┼────────────────────────────┤
│ block6e_se_excite (Multiply)  │ (None, 15, 4, 1536)       │               0 │ block6e_activation[0][0],  │
│                               │                           │                 │ block6e_se_expand[0][0]    │
├───────────────────────────────┼───────────────────────────┼─────────────────┼────────────────────────────┤
│ block6e_project_conv (Conv2D) │ (None, 15, 4, 256)        │         393,216 │ block6e_se_excite[0][0]    │
├───────────────────────────────┼───────────────────────────┼─────────────────┼────────────────────────────┤
│ block6e_project_bn            │ (None, 15, 4, 256)        │           1,024 │ block6e_project_conv[0][0] │
│ (BatchNormalization)          │                           │                 │                            │
├───────────────────────────────┼───────────────────────────┼─────────────────┼────────────────────────────┤
│ block6e_drop (Dropout)        │ (None, 15, 4, 256)        │               0 │ block6e_project_bn[0][0]   │
├───────────────────────────────┼───────────────────────────┼─────────────────┼────────────────────────────┤
│ block6e_add (Add)             │ (None, 15, 4, 256)        │               0 │ block6e_drop[0][0],        │
│                               │                           │                 │ block6d_add[0][0]          │
├───────────────────────────────┼───────────────────────────┼─────────────────┼────────────────────────────┤
│ block6f_expand_conv (Conv2D)  │ (None, 15, 4, 1536)       │         393,216 │ block6e_add[0][0]          │
├───────────────────────────────┼───────────────────────────┼─────────────────┼────────────────────────────┤
│ block6f_expand_bn             │ (None, 15, 4, 1536)       │           6,144 │ block6f_expand_conv[0][0]  │
│ (BatchNormalization)          │                           │                 │                            │
├───────────────────────────────┼───────────────────────────┼─────────────────┼────────────────────────────┤
│ block6f_expand_activation     │ (None, 15, 4, 1536)       │               0 │ block6f_expand_bn[0][0]    │
│ (Activation)                  │                           │                 │                            │
├───────────────────────────────┼───────────────────────────┼─────────────────┼────────────────────────────┤
│ block6f_dwconv2               │ (None, 15, 4, 1536)       │          13,824 │ block6f_expand_activation… │
│ (DepthwiseConv2D)             │                           │                 │                            │
├───────────────────────────────┼───────────────────────────┼─────────────────┼────────────────────────────┤
│ block6f_bn                    │ (None, 15, 4, 1536)       │           6,144 │ block6f_dwconv2[0][0]      │
│ (BatchNormalization)          │                           │                 │                            │
├───────────────────────────────┼───────────────────────────┼─────────────────┼────────────────────────────┤
│ block6f_activation            │ (None, 15, 4, 1536)       │               0 │ block6f_bn[0][0]           │
│ (Activation)                  │                           │                 │                            │
├───────────────────────────────┼───────────────────────────┼─────────────────┼────────────────────────────┤
│ block6f_se_squeeze            │ (None, 1536)              │               0 │ block6f_activation[0][0]   │
│ (GlobalAveragePooling2D)      │                           │                 │                            │
├───────────────────────────────┼───────────────────────────┼─────────────────┼────────────────────────────┤
│ block6f_se_reshape (Reshape)  │ (None, 1, 1, 1536)        │               0 │ block6f_se_squeeze[0][0]   │
├───────────────────────────────┼───────────────────────────┼─────────────────┼────────────────────────────┤
│ block6f_se_reduce (Conv2D)    │ (None, 1, 1, 64)          │          98,368 │ block6f_se_reshape[0][0]   │
├───────────────────────────────┼───────────────────────────┼─────────────────┼────────────────────────────┤
│ block6f_se_expand (Conv2D)    │ (None, 1, 1, 1536)        │          99,840 │ block6f_se_reduce[0][0]    │
├───────────────────────────────┼───────────────────────────┼─────────────────┼────────────────────────────┤
│ block6f_se_excite (Multiply)  │ (None, 15, 4, 1536)       │               0 │ block6f_activation[0][0],  │
│                               │                           │                 │ block6f_se_expand[0][0]    │
├───────────────────────────────┼───────────────────────────┼─────────────────┼────────────────────────────┤
│ block6f_project_conv (Conv2D) │ (None, 15, 4, 256)        │         393,216 │ block6f_se_excite[0][0]    │
├───────────────────────────────┼───────────────────────────┼─────────────────┼────────────────────────────┤
│ block6f_project_bn            │ (None, 15, 4, 256)        │           1,024 │ block6f_project_conv[0][0] │
│ (BatchNormalization)          │                           │                 │                            │
├───────────────────────────────┼───────────────────────────┼─────────────────┼────────────────────────────┤
│ block6f_drop (Dropout)        │ (None, 15, 4, 256)        │               0 │ block6f_project_bn[0][0]   │
├───────────────────────────────┼───────────────────────────┼─────────────────┼────────────────────────────┤
│ block6f_add (Add)             │ (None, 15, 4, 256)        │               0 │ block6f_drop[0][0],        │
│                               │                           │                 │ block6e_add[0][0]          │
├───────────────────────────────┼───────────────────────────┼─────────────────┼────────────────────────────┤
│ block6g_expand_conv (Conv2D)  │ (None, 15, 4, 1536)       │         393,216 │ block6f_add[0][0]          │
├───────────────────────────────┼───────────────────────────┼─────────────────┼────────────────────────────┤
│ block6g_expand_bn             │ (None, 15, 4, 1536)       │           6,144 │ block6g_expand_conv[0][0]  │
│ (BatchNormalization)          │                           │                 │                            │
├───────────────────────────────┼───────────────────────────┼─────────────────┼────────────────────────────┤
│ block6g_expand_activation     │ (None, 15, 4, 1536)       │               0 │ block6g_expand_bn[0][0]    │
│ (Activation)                  │                           │                 │                            │
├───────────────────────────────┼───────────────────────────┼─────────────────┼────────────────────────────┤
│ block6g_dwconv2               │ (None, 15, 4, 1536)       │          13,824 │ block6g_expand_activation… │
│ (DepthwiseConv2D)             │                           │                 │                            │
├───────────────────────────────┼───────────────────────────┼─────────────────┼────────────────────────────┤
│ block6g_bn                    │ (None, 15, 4, 1536)       │           6,144 │ block6g_dwconv2[0][0]      │
│ (BatchNormalization)          │                           │                 │                            │
├───────────────────────────────┼───────────────────────────┼─────────────────┼────────────────────────────┤
│ block6g_activation            │ (None, 15, 4, 1536)       │               0 │ block6g_bn[0][0]           │
│ (Activation)                  │                           │                 │                            │
├───────────────────────────────┼───────────────────────────┼─────────────────┼────────────────────────────┤
│ block6g_se_squeeze            │ (None, 1536)              │               0 │ block6g_activation[0][0]   │
│ (GlobalAveragePooling2D)      │                           │                 │                            │
├───────────────────────────────┼───────────────────────────┼─────────────────┼────────────────────────────┤
│ block6g_se_reshape (Reshape)  │ (None, 1, 1, 1536)        │               0 │ block6g_se_squeeze[0][0]   │
├───────────────────────────────┼───────────────────────────┼─────────────────┼────────────────────────────┤
│ block6g_se_reduce (Conv2D)    │ (None, 1, 1, 64)          │          98,368 │ block6g_se_reshape[0][0]   │
├───────────────────────────────┼───────────────────────────┼─────────────────┼────────────────────────────┤
│ block6g_se_expand (Conv2D)    │ (None, 1, 1, 1536)        │          99,840 │ block6g_se_reduce[0][0]    │
├───────────────────────────────┼───────────────────────────┼─────────────────┼────────────────────────────┤
│ block6g_se_excite (Multiply)  │ (None, 15, 4, 1536)       │               0 │ block6g_activation[0][0],  │
│                               │                           │                 │ block6g_se_expand[0][0]    │
├───────────────────────────────┼───────────────────────────┼─────────────────┼────────────────────────────┤
│ block6g_project_conv (Conv2D) │ (None, 15, 4, 256)        │         393,216 │ block6g_se_excite[0][0]    │
├───────────────────────────────┼───────────────────────────┼─────────────────┼────────────────────────────┤
│ block6g_project_bn            │ (None, 15, 4, 256)        │           1,024 │ block6g_project_conv[0][0] │
│ (BatchNormalization)          │                           │                 │                            │
├───────────────────────────────┼───────────────────────────┼─────────────────┼────────────────────────────┤
│ block6g_drop (Dropout)        │ (None, 15, 4, 256)        │               0 │ block6g_project_bn[0][0]   │
├───────────────────────────────┼───────────────────────────┼─────────────────┼────────────────────────────┤
│ block6g_add (Add)             │ (None, 15, 4, 256)        │               0 │ block6g_drop[0][0],        │
│                               │                           │                 │ block6f_add[0][0]          │
├───────────────────────────────┼───────────────────────────┼─────────────────┼────────────────────────────┤
│ block6h_expand_conv (Conv2D)  │ (None, 15, 4, 1536)       │         393,216 │ block6g_add[0][0]          │
├───────────────────────────────┼───────────────────────────┼─────────────────┼────────────────────────────┤
│ block6h_expand_bn             │ (None, 15, 4, 1536)       │           6,144 │ block6h_expand_conv[0][0]  │
│ (BatchNormalization)          │                           │                 │                            │
├───────────────────────────────┼───────────────────────────┼─────────────────┼────────────────────────────┤
│ block6h_expand_activation     │ (None, 15, 4, 1536)       │               0 │ block6h_expand_bn[0][0]    │
│ (Activation)                  │                           │                 │                            │
├───────────────────────────────┼───────────────────────────┼─────────────────┼────────────────────────────┤
│ block6h_dwconv2               │ (None, 15, 4, 1536)       │          13,824 │ block6h_expand_activation… │
│ (DepthwiseConv2D)             │                           │                 │                            │
├───────────────────────────────┼───────────────────────────┼─────────────────┼────────────────────────────┤
│ block6h_bn                    │ (None, 15, 4, 1536)       │           6,144 │ block6h_dwconv2[0][0]      │
│ (BatchNormalization)          │                           │                 │                            │
├───────────────────────────────┼───────────────────────────┼─────────────────┼────────────────────────────┤
│ block6h_activation            │ (None, 15, 4, 1536)       │               0 │ block6h_bn[0][0]           │
│ (Activation)                  │                           │                 │                            │
├───────────────────────────────┼───────────────────────────┼─────────────────┼────────────────────────────┤
│ block6h_se_squeeze            │ (None, 1536)              │               0 │ block6h_activation[0][0]   │
│ (GlobalAveragePooling2D)      │                           │                 │                            │
├───────────────────────────────┼───────────────────────────┼─────────────────┼────────────────────────────┤
│ block6h_se_reshape (Reshape)  │ (None, 1, 1, 1536)        │               0 │ block6h_se_squeeze[0][0]   │
├───────────────────────────────┼───────────────────────────┼─────────────────┼────────────────────────────┤
│ block6h_se_reduce (Conv2D)    │ (None, 1, 1, 64)          │          98,368 │ block6h_se_reshape[0][0]   │
├───────────────────────────────┼───────────────────────────┼─────────────────┼────────────────────────────┤
│ block6h_se_expand (Conv2D)    │ (None, 1, 1, 1536)        │          99,840 │ block6h_se_reduce[0][0]    │
├───────────────────────────────┼───────────────────────────┼─────────────────┼────────────────────────────┤
│ block6h_se_excite (Multiply)  │ (None, 15, 4, 1536)       │               0 │ block6h_activation[0][0],  │
│                               │                           │                 │ block6h_se_expand[0][0]    │
├───────────────────────────────┼───────────────────────────┼─────────────────┼────────────────────────────┤
│ block6h_project_conv (Conv2D) │ (None, 15, 4, 256)        │         393,216 │ block6h_se_excite[0][0]    │
├───────────────────────────────┼───────────────────────────┼─────────────────┼────────────────────────────┤
│ block6h_project_bn            │ (None, 15, 4, 256)        │           1,024 │ block6h_project_conv[0][0] │
│ (BatchNormalization)          │                           │                 │                            │
├───────────────────────────────┼───────────────────────────┼─────────────────┼────────────────────────────┤
│ block6h_drop (Dropout)        │ (None, 15, 4, 256)        │               0 │ block6h_project_bn[0][0]   │
├───────────────────────────────┼───────────────────────────┼─────────────────┼────────────────────────────┤
│ block6h_add (Add)             │ (None, 15, 4, 256)        │               0 │ block6h_drop[0][0],        │
│                               │                           │                 │ block6g_add[0][0]          │
├───────────────────────────────┼───────────────────────────┼─────────────────┼────────────────────────────┤
│ block6i_expand_conv (Conv2D)  │ (None, 15, 4, 1536)       │         393,216 │ block6h_add[0][0]          │
├───────────────────────────────┼───────────────────────────┼─────────────────┼────────────────────────────┤
│ block6i_expand_bn             │ (None, 15, 4, 1536)       │           6,144 │ block6i_expand_conv[0][0]  │
│ (BatchNormalization)          │                           │                 │                            │
├───────────────────────────────┼───────────────────────────┼─────────────────┼────────────────────────────┤
│ block6i_expand_activation     │ (None, 15, 4, 1536)       │               0 │ block6i_expand_bn[0][0]    │
│ (Activation)                  │                           │                 │                            │
├───────────────────────────────┼───────────────────────────┼─────────────────┼────────────────────────────┤
│ block6i_dwconv2               │ (None, 15, 4, 1536)       │          13,824 │ block6i_expand_activation… │
│ (DepthwiseConv2D)             │                           │                 │                            │
├───────────────────────────────┼───────────────────────────┼─────────────────┼────────────────────────────┤
│ block6i_bn                    │ (None, 15, 4, 1536)       │           6,144 │ block6i_dwconv2[0][0]      │
│ (BatchNormalization)          │                           │                 │                            │
├───────────────────────────────┼───────────────────────────┼─────────────────┼────────────────────────────┤
│ block6i_activation            │ (None, 15, 4, 1536)       │               0 │ block6i_bn[0][0]           │
│ (Activation)                  │                           │                 │                            │
├───────────────────────────────┼───────────────────────────┼─────────────────┼────────────────────────────┤
│ block6i_se_squeeze            │ (None, 1536)              │               0 │ block6i_activation[0][0]   │
│ (GlobalAveragePooling2D)      │                           │                 │                            │
├───────────────────────────────┼───────────────────────────┼─────────────────┼────────────────────────────┤
│ block6i_se_reshape (Reshape)  │ (None, 1, 1, 1536)        │               0 │ block6i_se_squeeze[0][0]   │
├───────────────────────────────┼───────────────────────────┼─────────────────┼────────────────────────────┤
│ block6i_se_reduce (Conv2D)    │ (None, 1, 1, 64)          │          98,368 │ block6i_se_reshape[0][0]   │
├───────────────────────────────┼───────────────────────────┼─────────────────┼────────────────────────────┤
│ block6i_se_expand (Conv2D)    │ (None, 1, 1, 1536)        │          99,840 │ block6i_se_reduce[0][0]    │
├───────────────────────────────┼───────────────────────────┼─────────────────┼────────────────────────────┤
│ block6i_se_excite (Multiply)  │ (None, 15, 4, 1536)       │               0 │ block6i_activation[0][0],  │
│                               │                           │                 │ block6i_se_expand[0][0]    │
├───────────────────────────────┼───────────────────────────┼─────────────────┼────────────────────────────┤
│ block6i_project_conv (Conv2D) │ (None, 15, 4, 256)        │         393,216 │ block6i_se_excite[0][0]    │
├───────────────────────────────┼───────────────────────────┼─────────────────┼────────────────────────────┤
│ block6i_project_bn            │ (None, 15, 4, 256)        │           1,024 │ block6i_project_conv[0][0] │
│ (BatchNormalization)          │                           │                 │                            │
├───────────────────────────────┼───────────────────────────┼─────────────────┼────────────────────────────┤
│ block6i_drop (Dropout)        │ (None, 15, 4, 256)        │               0 │ block6i_project_bn[0][0]   │
├───────────────────────────────┼───────────────────────────┼─────────────────┼────────────────────────────┤
│ block6i_add (Add)             │ (None, 15, 4, 256)        │               0 │ block6i_drop[0][0],        │
│                               │                           │                 │ block6h_add[0][0]          │
├───────────────────────────────┼───────────────────────────┼─────────────────┼────────────────────────────┤
│ block6j_expand_conv (Conv2D)  │ (None, 15, 4, 1536)       │         393,216 │ block6i_add[0][0]          │
├───────────────────────────────┼───────────────────────────┼─────────────────┼────────────────────────────┤
│ block6j_expand_bn             │ (None, 15, 4, 1536)       │           6,144 │ block6j_expand_conv[0][0]  │
│ (BatchNormalization)          │                           │                 │                            │
├───────────────────────────────┼───────────────────────────┼─────────────────┼────────────────────────────┤
│ block6j_expand_activation     │ (None, 15, 4, 1536)       │               0 │ block6j_expand_bn[0][0]    │
│ (Activation)                  │                           │                 │                            │
├───────────────────────────────┼───────────────────────────┼─────────────────┼────────────────────────────┤
│ block6j_dwconv2               │ (None, 15, 4, 1536)       │          13,824 │ block6j_expand_activation… │
│ (DepthwiseConv2D)             │                           │                 │                            │
├───────────────────────────────┼───────────────────────────┼─────────────────┼────────────────────────────┤
│ block6j_bn                    │ (None, 15, 4, 1536)       │           6,144 │ block6j_dwconv2[0][0]      │
│ (BatchNormalization)          │                           │                 │                            │
├───────────────────────────────┼───────────────────────────┼─────────────────┼────────────────────────────┤
│ block6j_activation            │ (None, 15, 4, 1536)       │               0 │ block6j_bn[0][0]           │
│ (Activation)                  │                           │                 │                            │
├───────────────────────────────┼───────────────────────────┼─────────────────┼────────────────────────────┤
│ block6j_se_squeeze            │ (None, 1536)              │               0 │ block6j_activation[0][0]   │
│ (GlobalAveragePooling2D)      │                           │                 │                            │
├───────────────────────────────┼───────────────────────────┼─────────────────┼────────────────────────────┤
│ block6j_se_reshape (Reshape)  │ (None, 1, 1, 1536)        │               0 │ block6j_se_squeeze[0][0]   │
├───────────────────────────────┼───────────────────────────┼─────────────────┼────────────────────────────┤
│ block6j_se_reduce (Conv2D)    │ (None, 1, 1, 64)          │          98,368 │ block6j_se_reshape[0][0]   │
├───────────────────────────────┼───────────────────────────┼─────────────────┼────────────────────────────┤
│ block6j_se_expand (Conv2D)    │ (None, 1, 1, 1536)        │          99,840 │ block6j_se_reduce[0][0]    │
├───────────────────────────────┼───────────────────────────┼─────────────────┼────────────────────────────┤
│ block6j_se_excite (Multiply)  │ (None, 15, 4, 1536)       │               0 │ block6j_activation[0][0],  │
│                               │                           │                 │ block6j_se_expand[0][0]    │
├───────────────────────────────┼───────────────────────────┼─────────────────┼────────────────────────────┤
│ block6j_project_conv (Conv2D) │ (None, 15, 4, 256)        │         393,216 │ block6j_se_excite[0][0]    │
├───────────────────────────────┼───────────────────────────┼─────────────────┼────────────────────────────┤
│ block6j_project_bn            │ (None, 15, 4, 256)        │           1,024 │ block6j_project_conv[0][0] │
│ (BatchNormalization)          │                           │                 │                            │
├───────────────────────────────┼───────────────────────────┼─────────────────┼────────────────────────────┤
│ block6j_drop (Dropout)        │ (None, 15, 4, 256)        │               0 │ block6j_project_bn[0][0]   │
├───────────────────────────────┼───────────────────────────┼─────────────────┼────────────────────────────┤
│ block6j_add (Add)             │ (None, 15, 4, 256)        │               0 │ block6j_drop[0][0],        │
│                               │                           │                 │ block6i_add[0][0]          │
├───────────────────────────────┼───────────────────────────┼─────────────────┼────────────────────────────┤
│ block6k_expand_conv (Conv2D)  │ (None, 15, 4, 1536)       │         393,216 │ block6j_add[0][0]          │
├───────────────────────────────┼───────────────────────────┼─────────────────┼────────────────────────────┤
│ block6k_expand_bn             │ (None, 15, 4, 1536)       │           6,144 │ block6k_expand_conv[0][0]  │
│ (BatchNormalization)          │                           │                 │                            │
├───────────────────────────────┼───────────────────────────┼─────────────────┼────────────────────────────┤
│ block6k_expand_activation     │ (None, 15, 4, 1536)       │               0 │ block6k_expand_bn[0][0]    │
│ (Activation)                  │                           │                 │                            │
├───────────────────────────────┼───────────────────────────┼─────────────────┼────────────────────────────┤
│ block6k_dwconv2               │ (None, 15, 4, 1536)       │          13,824 │ block6k_expand_activation… │
│ (DepthwiseConv2D)             │                           │                 │                            │
├───────────────────────────────┼───────────────────────────┼─────────────────┼────────────────────────────┤
│ block6k_bn                    │ (None, 15, 4, 1536)       │           6,144 │ block6k_dwconv2[0][0]      │
│ (BatchNormalization)          │                           │                 │                            │
├───────────────────────────────┼───────────────────────────┼─────────────────┼────────────────────────────┤
│ block6k_activation            │ (None, 15, 4, 1536)       │               0 │ block6k_bn[0][0]           │
│ (Activation)                  │                           │                 │                            │
├───────────────────────────────┼───────────────────────────┼─────────────────┼────────────────────────────┤
│ block6k_se_squeeze            │ (None, 1536)              │               0 │ block6k_activation[0][0]   │
│ (GlobalAveragePooling2D)      │                           │                 │                            │
├───────────────────────────────┼───────────────────────────┼─────────────────┼────────────────────────────┤
│ block6k_se_reshape (Reshape)  │ (None, 1, 1, 1536)        │               0 │ block6k_se_squeeze[0][0]   │
├───────────────────────────────┼───────────────────────────┼─────────────────┼────────────────────────────┤
│ block6k_se_reduce (Conv2D)    │ (None, 1, 1, 64)          │          98,368 │ block6k_se_reshape[0][0]   │
├───────────────────────────────┼───────────────────────────┼─────────────────┼────────────────────────────┤
│ block6k_se_expand (Conv2D)    │ (None, 1, 1, 1536)        │          99,840 │ block6k_se_reduce[0][0]    │
├───────────────────────────────┼───────────────────────────┼─────────────────┼────────────────────────────┤
│ block6k_se_excite (Multiply)  │ (None, 15, 4, 1536)       │               0 │ block6k_activation[0][0],  │
│                               │                           │                 │ block6k_se_expand[0][0]    │
├───────────────────────────────┼───────────────────────────┼─────────────────┼────────────────────────────┤
│ block6k_project_conv (Conv2D) │ (None, 15, 4, 256)        │         393,216 │ block6k_se_excite[0][0]    │
├───────────────────────────────┼───────────────────────────┼─────────────────┼────────────────────────────┤
│ block6k_project_bn            │ (None, 15, 4, 256)        │           1,024 │ block6k_project_conv[0][0] │
│ (BatchNormalization)          │                           │                 │                            │
├───────────────────────────────┼───────────────────────────┼─────────────────┼────────────────────────────┤
│ block6k_drop (Dropout)        │ (None, 15, 4, 256)        │               0 │ block6k_project_bn[0][0]   │
├───────────────────────────────┼───────────────────────────┼─────────────────┼────────────────────────────┤
│ block6k_add (Add)             │ (None, 15, 4, 256)        │               0 │ block6k_drop[0][0],        │
│                               │                           │                 │ block6j_add[0][0]          │
├───────────────────────────────┼───────────────────────────┼─────────────────┼────────────────────────────┤
│ block6l_expand_conv (Conv2D)  │ (None, 15, 4, 1536)       │         393,216 │ block6k_add[0][0]          │
├───────────────────────────────┼───────────────────────────┼─────────────────┼────────────────────────────┤
│ block6l_expand_bn             │ (None, 15, 4, 1536)       │           6,144 │ block6l_expand_conv[0][0]  │
│ (BatchNormalization)          │                           │                 │                            │
├───────────────────────────────┼───────────────────────────┼─────────────────┼────────────────────────────┤
│ block6l_expand_activation     │ (None, 15, 4, 1536)       │               0 │ block6l_expand_bn[0][0]    │
│ (Activation)                  │                           │                 │                            │
├───────────────────────────────┼───────────────────────────┼─────────────────┼────────────────────────────┤
│ block6l_dwconv2               │ (None, 15, 4, 1536)       │          13,824 │ block6l_expand_activation… │
│ (DepthwiseConv2D)             │                           │                 │                            │
├───────────────────────────────┼───────────────────────────┼─────────────────┼────────────────────────────┤
│ block6l_bn                    │ (None, 15, 4, 1536)       │           6,144 │ block6l_dwconv2[0][0]      │
│ (BatchNormalization)          │                           │                 │                            │
├───────────────────────────────┼───────────────────────────┼─────────────────┼────────────────────────────┤
│ block6l_activation            │ (None, 15, 4, 1536)       │               0 │ block6l_bn[0][0]           │
│ (Activation)                  │                           │                 │                            │
├───────────────────────────────┼───────────────────────────┼─────────────────┼────────────────────────────┤
│ block6l_se_squeeze            │ (None, 1536)              │               0 │ block6l_activation[0][0]   │
│ (GlobalAveragePooling2D)      │                           │                 │                            │
├───────────────────────────────┼───────────────────────────┼─────────────────┼────────────────────────────┤
│ block6l_se_reshape (Reshape)  │ (None, 1, 1, 1536)        │               0 │ block6l_se_squeeze[0][0]   │
├───────────────────────────────┼───────────────────────────┼─────────────────┼────────────────────────────┤
│ block6l_se_reduce (Conv2D)    │ (None, 1, 1, 64)          │          98,368 │ block6l_se_reshape[0][0]   │
├───────────────────────────────┼───────────────────────────┼─────────────────┼────────────────────────────┤
│ block6l_se_expand (Conv2D)    │ (None, 1, 1, 1536)        │          99,840 │ block6l_se_reduce[0][0]    │
├───────────────────────────────┼───────────────────────────┼─────────────────┼────────────────────────────┤
│ block6l_se_excite (Multiply)  │ (None, 15, 4, 1536)       │               0 │ block6l_activation[0][0],  │
│                               │                           │                 │ block6l_se_expand[0][0]    │
├───────────────────────────────┼───────────────────────────┼─────────────────┼────────────────────────────┤
│ block6l_project_conv (Conv2D) │ (None, 15, 4, 256)        │         393,216 │ block6l_se_excite[0][0]    │
├───────────────────────────────┼───────────────────────────┼─────────────────┼────────────────────────────┤
│ block6l_project_bn            │ (None, 15, 4, 256)        │           1,024 │ block6l_project_conv[0][0] │
│ (BatchNormalization)          │                           │                 │                            │
├───────────────────────────────┼───────────────────────────┼─────────────────┼────────────────────────────┤
│ block6l_drop (Dropout)        │ (None, 15, 4, 256)        │               0 │ block6l_project_bn[0][0]   │
├───────────────────────────────┼───────────────────────────┼─────────────────┼────────────────────────────┤
│ block6l_add (Add)             │ (None, 15, 4, 256)        │               0 │ block6l_drop[0][0],        │
│                               │                           │                 │ block6k_add[0][0]          │
├───────────────────────────────┼───────────────────────────┼─────────────────┼────────────────────────────┤
│ block6m_expand_conv (Conv2D)  │ (None, 15, 4, 1536)       │         393,216 │ block6l_add[0][0]          │
├───────────────────────────────┼───────────────────────────┼─────────────────┼────────────────────────────┤
│ block6m_expand_bn             │ (None, 15, 4, 1536)       │           6,144 │ block6m_expand_conv[0][0]  │
│ (BatchNormalization)          │                           │                 │                            │
├───────────────────────────────┼───────────────────────────┼─────────────────┼────────────────────────────┤
│ block6m_expand_activation     │ (None, 15, 4, 1536)       │               0 │ block6m_expand_bn[0][0]    │
│ (Activation)                  │                           │                 │                            │
├───────────────────────────────┼───────────────────────────┼─────────────────┼────────────────────────────┤
│ block6m_dwconv2               │ (None, 15, 4, 1536)       │          13,824 │ block6m_expand_activation… │
│ (DepthwiseConv2D)             │                           │                 │                            │
├───────────────────────────────┼───────────────────────────┼─────────────────┼────────────────────────────┤
│ block6m_bn                    │ (None, 15, 4, 1536)       │           6,144 │ block6m_dwconv2[0][0]      │
│ (BatchNormalization)          │                           │                 │                            │
├───────────────────────────────┼───────────────────────────┼─────────────────┼────────────────────────────┤
│ block6m_activation            │ (None, 15, 4, 1536)       │               0 │ block6m_bn[0][0]           │
│ (Activation)                  │                           │                 │                            │
├───────────────────────────────┼───────────────────────────┼─────────────────┼────────────────────────────┤
│ block6m_se_squeeze            │ (None, 1536)              │               0 │ block6m_activation[0][0]   │
│ (GlobalAveragePooling2D)      │                           │                 │                            │
├───────────────────────────────┼───────────────────────────┼─────────────────┼────────────────────────────┤
│ block6m_se_reshape (Reshape)  │ (None, 1, 1, 1536)        │               0 │ block6m_se_squeeze[0][0]   │
├───────────────────────────────┼───────────────────────────┼─────────────────┼────────────────────────────┤
│ block6m_se_reduce (Conv2D)    │ (None, 1, 1, 64)          │          98,368 │ block6m_se_reshape[0][0]   │
├───────────────────────────────┼───────────────────────────┼─────────────────┼────────────────────────────┤
│ block6m_se_expand (Conv2D)    │ (None, 1, 1, 1536)        │          99,840 │ block6m_se_reduce[0][0]    │
├───────────────────────────────┼───────────────────────────┼─────────────────┼────────────────────────────┤
│ block6m_se_excite (Multiply)  │ (None, 15, 4, 1536)       │               0 │ block6m_activation[0][0],  │
│                               │                           │                 │ block6m_se_expand[0][0]    │
├───────────────────────────────┼───────────────────────────┼─────────────────┼────────────────────────────┤
│ block6m_project_conv (Conv2D) │ (None, 15, 4, 256)        │         393,216 │ block6m_se_excite[0][0]    │
├───────────────────────────────┼───────────────────────────┼─────────────────┼────────────────────────────┤
│ block6m_project_bn            │ (None, 15, 4, 256)        │           1,024 │ block6m_project_conv[0][0] │
│ (BatchNormalization)          │                           │                 │                            │
├───────────────────────────────┼───────────────────────────┼─────────────────┼────────────────────────────┤
│ block6m_drop (Dropout)        │ (None, 15, 4, 256)        │               0 │ block6m_project_bn[0][0]   │
├───────────────────────────────┼───────────────────────────┼─────────────────┼────────────────────────────┤
│ block6m_add (Add)             │ (None, 15, 4, 256)        │               0 │ block6m_drop[0][0],        │
│                               │                           │                 │ block6l_add[0][0]          │
├───────────────────────────────┼───────────────────────────┼─────────────────┼────────────────────────────┤
│ block6n_expand_conv (Conv2D)  │ (None, 15, 4, 1536)       │         393,216 │ block6m_add[0][0]          │
├───────────────────────────────┼───────────────────────────┼─────────────────┼────────────────────────────┤
│ block6n_expand_bn             │ (None, 15, 4, 1536)       │           6,144 │ block6n_expand_conv[0][0]  │
│ (BatchNormalization)          │                           │                 │                            │
├───────────────────────────────┼───────────────────────────┼─────────────────┼────────────────────────────┤
│ block6n_expand_activation     │ (None, 15, 4, 1536)       │               0 │ block6n_expand_bn[0][0]    │
│ (Activation)                  │                           │                 │                            │
├───────────────────────────────┼───────────────────────────┼─────────────────┼────────────────────────────┤
│ block6n_dwconv2               │ (None, 15, 4, 1536)       │          13,824 │ block6n_expand_activation… │
│ (DepthwiseConv2D)             │                           │                 │                            │
├───────────────────────────────┼───────────────────────────┼─────────────────┼────────────────────────────┤
│ block6n_bn                    │ (None, 15, 4, 1536)       │           6,144 │ block6n_dwconv2[0][0]      │
│ (BatchNormalization)          │                           │                 │                            │
├───────────────────────────────┼───────────────────────────┼─────────────────┼────────────────────────────┤
│ block6n_activation            │ (None, 15, 4, 1536)       │               0 │ block6n_bn[0][0]           │
│ (Activation)                  │                           │                 │                            │
├───────────────────────────────┼───────────────────────────┼─────────────────┼────────────────────────────┤
│ block6n_se_squeeze            │ (None, 1536)              │               0 │ block6n_activation[0][0]   │
│ (GlobalAveragePooling2D)      │                           │                 │                            │
├───────────────────────────────┼───────────────────────────┼─────────────────┼────────────────────────────┤
│ block6n_se_reshape (Reshape)  │ (None, 1, 1, 1536)        │               0 │ block6n_se_squeeze[0][0]   │
├───────────────────────────────┼───────────────────────────┼─────────────────┼────────────────────────────┤
│ block6n_se_reduce (Conv2D)    │ (None, 1, 1, 64)          │          98,368 │ block6n_se_reshape[0][0]   │
├───────────────────────────────┼───────────────────────────┼─────────────────┼────────────────────────────┤
│ block6n_se_expand (Conv2D)    │ (None, 1, 1, 1536)        │          99,840 │ block6n_se_reduce[0][0]    │
├───────────────────────────────┼───────────────────────────┼─────────────────┼────────────────────────────┤
│ block6n_se_excite (Multiply)  │ (None, 15, 4, 1536)       │               0 │ block6n_activation[0][0],  │
│                               │                           │                 │ block6n_se_expand[0][0]    │
├───────────────────────────────┼───────────────────────────┼─────────────────┼────────────────────────────┤
│ block6n_project_conv (Conv2D) │ (None, 15, 4, 256)        │         393,216 │ block6n_se_excite[0][0]    │
├───────────────────────────────┼───────────────────────────┼─────────────────┼────────────────────────────┤
│ block6n_project_bn            │ (None, 15, 4, 256)        │           1,024 │ block6n_project_conv[0][0] │
│ (BatchNormalization)          │                           │                 │                            │
├───────────────────────────────┼───────────────────────────┼─────────────────┼────────────────────────────┤
│ block6n_drop (Dropout)        │ (None, 15, 4, 256)        │               0 │ block6n_project_bn[0][0]   │
├───────────────────────────────┼───────────────────────────┼─────────────────┼────────────────────────────┤
│ block6n_add (Add)             │ (None, 15, 4, 256)        │               0 │ block6n_drop[0][0],        │
│                               │                           │                 │ block6m_add[0][0]          │
├───────────────────────────────┼───────────────────────────┼─────────────────┼────────────────────────────┤
│ block6o_expand_conv (Conv2D)  │ (None, 15, 4, 1536)       │         393,216 │ block6n_add[0][0]          │
├───────────────────────────────┼───────────────────────────┼─────────────────┼────────────────────────────┤
│ block6o_expand_bn             │ (None, 15, 4, 1536)       │           6,144 │ block6o_expand_conv[0][0]  │
│ (BatchNormalization)          │                           │                 │                            │
├───────────────────────────────┼───────────────────────────┼─────────────────┼────────────────────────────┤
│ block6o_expand_activation     │ (None, 15, 4, 1536)       │               0 │ block6o_expand_bn[0][0]    │
│ (Activation)                  │                           │                 │                            │
├───────────────────────────────┼───────────────────────────┼─────────────────┼────────────────────────────┤
│ block6o_dwconv2               │ (None, 15, 4, 1536)       │          13,824 │ block6o_expand_activation… │
│ (DepthwiseConv2D)             │                           │                 │                            │
├───────────────────────────────┼───────────────────────────┼─────────────────┼────────────────────────────┤
│ block6o_bn                    │ (None, 15, 4, 1536)       │           6,144 │ block6o_dwconv2[0][0]      │
│ (BatchNormalization)          │                           │                 │                            │
├───────────────────────────────┼───────────────────────────┼─────────────────┼────────────────────────────┤
│ block6o_activation            │ (None, 15, 4, 1536)       │               0 │ block6o_bn[0][0]           │
│ (Activation)                  │                           │                 │                            │
├───────────────────────────────┼───────────────────────────┼─────────────────┼────────────────────────────┤
│ block6o_se_squeeze            │ (None, 1536)              │               0 │ block6o_activation[0][0]   │
│ (GlobalAveragePooling2D)      │                           │                 │                            │
├───────────────────────────────┼───────────────────────────┼─────────────────┼────────────────────────────┤
│ block6o_se_reshape (Reshape)  │ (None, 1, 1, 1536)        │               0 │ block6o_se_squeeze[0][0]   │
├───────────────────────────────┼───────────────────────────┼─────────────────┼────────────────────────────┤
│ block6o_se_reduce (Conv2D)    │ (None, 1, 1, 64)          │          98,368 │ block6o_se_reshape[0][0]   │
├───────────────────────────────┼───────────────────────────┼─────────────────┼────────────────────────────┤
│ block6o_se_expand (Conv2D)    │ (None, 1, 1, 1536)        │          99,840 │ block6o_se_reduce[0][0]    │
├───────────────────────────────┼───────────────────────────┼─────────────────┼────────────────────────────┤
│ block6o_se_excite (Multiply)  │ (None, 15, 4, 1536)       │               0 │ block6o_activation[0][0],  │
│                               │                           │                 │ block6o_se_expand[0][0]    │
├───────────────────────────────┼───────────────────────────┼─────────────────┼────────────────────────────┤
│ block6o_project_conv (Conv2D) │ (None, 15, 4, 256)        │         393,216 │ block6o_se_excite[0][0]    │
├───────────────────────────────┼───────────────────────────┼─────────────────┼────────────────────────────┤
│ block6o_project_bn            │ (None, 15, 4, 256)        │           1,024 │ block6o_project_conv[0][0] │
│ (BatchNormalization)          │                           │                 │                            │
├───────────────────────────────┼───────────────────────────┼─────────────────┼────────────────────────────┤
│ block6o_drop (Dropout)        │ (None, 15, 4, 256)        │               0 │ block6o_project_bn[0][0]   │
├───────────────────────────────┼───────────────────────────┼─────────────────┼────────────────────────────┤
│ block6o_add (Add)             │ (None, 15, 4, 256)        │               0 │ block6o_drop[0][0],        │
│                               │                           │                 │ block6n_add[0][0]          │
├───────────────────────────────┼───────────────────────────┼─────────────────┼────────────────────────────┤
│ top_conv (Conv2D)             │ (None, 15, 4, 1280)       │         327,680 │ block6o_add[0][0]          │
├───────────────────────────────┼───────────────────────────┼─────────────────┼────────────────────────────┤
│ top_bn (BatchNormalization)   │ (None, 15, 4, 1280)       │           5,120 │ top_conv[0][0]             │
├───────────────────────────────┼───────────────────────────┼─────────────────┼────────────────────────────┤
│ top_activation (Activation)   │ (None, 15, 4, 1280)       │               0 │ top_bn[0][0]               │
├───────────────────────────────┼───────────────────────────┼─────────────────┼────────────────────────────┤
│ avg_pool                      │ (None, 1280)              │               0 │ top_activation[0][0]       │
│ (GlobalAveragePooling2D)      │                           │                 │                            │
├───────────────────────────────┼───────────────────────────┼─────────────────┼────────────────────────────┤
│ batch_normalization           │ (None, 1280)              │           5,120 │ avg_pool[0][0]             │
│ (BatchNormalization)          │                           │                 │                            │
├───────────────────────────────┼───────────────────────────┼─────────────────┼────────────────────────────┤
│ top_dropout (Dropout)         │ (None, 1280)              │               0 │ batch_normalization[0][0]  │
├───────────────────────────────┼───────────────────────────┼─────────────────┼────────────────────────────┤
│ pred (Dense)                  │ (None, 1)                 │           1,281 │ top_dropout[0][0]          │
└───────────────────────────────┴───────────────────────────┴─────────────────┴────────────────────────────┘
 Total params: 20,337,761 (77.58 MB)
 Trainable params: 3,841 (15.00 KB)
 Non-trainable params: 20,333,920 (77.57 MB)

